node {
  name: "images"
  op: "Placeholder"
  attr {
    key: "dtype"
    value {
      type: DT_FLOAT
    }
  }
  attr {
    key: "shape"
    value {
      shape {
        dim {
          size: -1
        }
        dim {
          size: 80
        }
        dim {
          size: 80
        }
        dim {
          size: 3
        }
      }
    }
  }
}
node {
  name: "labels"
  op: "Placeholder"
  attr {
    key: "dtype"
    value {
      type: DT_FLOAT
    }
  }
  attr {
    key: "shape"
    value {
      shape {
        dim {
          size: -1
        }
        dim {
          size: 80
        }
        dim {
          size: 80
        }
        dim {
          size: 3
        }
      }
    }
  }
}
node {
  name: "validation_images"
  op: "Placeholder"
  attr {
    key: "dtype"
    value {
      type: DT_FLOAT
    }
  }
  attr {
    key: "shape"
    value {
      shape {
        dim {
          size: -1
        }
        dim {
          size: 384
        }
        dim {
          size: 324
        }
        dim {
          size: 3
        }
      }
    }
  }
}
node {
  name: "validation_labels"
  op: "Placeholder"
  attr {
    key: "dtype"
    value {
      type: DT_FLOAT
    }
  }
  attr {
    key: "shape"
    value {
      shape {
        dim {
          size: -1
        }
        dim {
          size: 384
        }
        dim {
          size: 324
        }
        dim {
          size: 3
        }
      }
    }
  }
}
node {
  name: "u_net/conv1_1/W_conv2d/Initializer/truncated_normal/shape"
  op: "Const"
  attr {
    key: "_class"
    value {
      list {
        s: "loc:@u_net/conv1_1/W_conv2d"
      }
    }
  }
  attr {
    key: "dtype"
    value {
      type: DT_INT32
    }
  }
  attr {
    key: "value"
    value {
      tensor {
        dtype: DT_INT32
        tensor_shape {
          dim {
            size: 4
          }
        }
        tensor_content: "\003\000\000\000\003\000\000\000\003\000\000\000@\000\000\000"
      }
    }
  }
}
node {
  name: "u_net/conv1_1/W_conv2d/Initializer/truncated_normal/mean"
  op: "Const"
  attr {
    key: "_class"
    value {
      list {
        s: "loc:@u_net/conv1_1/W_conv2d"
      }
    }
  }
  attr {
    key: "dtype"
    value {
      type: DT_FLOAT
    }
  }
  attr {
    key: "value"
    value {
      tensor {
        dtype: DT_FLOAT
        tensor_shape {
        }
        float_val: 0.0
      }
    }
  }
}
node {
  name: "u_net/conv1_1/W_conv2d/Initializer/truncated_normal/stddev"
  op: "Const"
  attr {
    key: "_class"
    value {
      list {
        s: "loc:@u_net/conv1_1/W_conv2d"
      }
    }
  }
  attr {
    key: "dtype"
    value {
      type: DT_FLOAT
    }
  }
  attr {
    key: "value"
    value {
      tensor {
        dtype: DT_FLOAT
        tensor_shape {
        }
        float_val: 0.009999999776482582
      }
    }
  }
}
node {
  name: "u_net/conv1_1/W_conv2d/Initializer/truncated_normal/TruncatedNormal"
  op: "TruncatedNormal"
  input: "u_net/conv1_1/W_conv2d/Initializer/truncated_normal/shape"
  attr {
    key: "T"
    value {
      type: DT_INT32
    }
  }
  attr {
    key: "_class"
    value {
      list {
        s: "loc:@u_net/conv1_1/W_conv2d"
      }
    }
  }
  attr {
    key: "dtype"
    value {
      type: DT_FLOAT
    }
  }
  attr {
    key: "seed"
    value {
      i: 0
    }
  }
  attr {
    key: "seed2"
    value {
      i: 0
    }
  }
}
node {
  name: "u_net/conv1_1/W_conv2d/Initializer/truncated_normal/mul"
  op: "Mul"
  input: "u_net/conv1_1/W_conv2d/Initializer/truncated_normal/TruncatedNormal"
  input: "u_net/conv1_1/W_conv2d/Initializer/truncated_normal/stddev"
  attr {
    key: "T"
    value {
      type: DT_FLOAT
    }
  }
  attr {
    key: "_class"
    value {
      list {
        s: "loc:@u_net/conv1_1/W_conv2d"
      }
    }
  }
}
node {
  name: "u_net/conv1_1/W_conv2d/Initializer/truncated_normal"
  op: "Add"
  input: "u_net/conv1_1/W_conv2d/Initializer/truncated_normal/mul"
  input: "u_net/conv1_1/W_conv2d/Initializer/truncated_normal/mean"
  attr {
    key: "T"
    value {
      type: DT_FLOAT
    }
  }
  attr {
    key: "_class"
    value {
      list {
        s: "loc:@u_net/conv1_1/W_conv2d"
      }
    }
  }
}
node {
  name: "u_net/conv1_1/W_conv2d"
  op: "VariableV2"
  attr {
    key: "_class"
    value {
      list {
        s: "loc:@u_net/conv1_1/W_conv2d"
      }
    }
  }
  attr {
    key: "container"
    value {
      s: ""
    }
  }
  attr {
    key: "dtype"
    value {
      type: DT_FLOAT
    }
  }
  attr {
    key: "shape"
    value {
      shape {
        dim {
          size: 3
        }
        dim {
          size: 3
        }
        dim {
          size: 3
        }
        dim {
          size: 64
        }
      }
    }
  }
  attr {
    key: "shared_name"
    value {
      s: ""
    }
  }
}
node {
  name: "u_net/conv1_1/W_conv2d/Assign"
  op: "Assign"
  input: "u_net/conv1_1/W_conv2d"
  input: "u_net/conv1_1/W_conv2d/Initializer/truncated_normal"
  attr {
    key: "T"
    value {
      type: DT_FLOAT
    }
  }
  attr {
    key: "_class"
    value {
      list {
        s: "loc:@u_net/conv1_1/W_conv2d"
      }
    }
  }
  attr {
    key: "use_locking"
    value {
      b: true
    }
  }
  attr {
    key: "validate_shape"
    value {
      b: true
    }
  }
}
node {
  name: "u_net/conv1_1/W_conv2d/read"
  op: "Identity"
  input: "u_net/conv1_1/W_conv2d"
  attr {
    key: "T"
    value {
      type: DT_FLOAT
    }
  }
  attr {
    key: "_class"
    value {
      list {
        s: "loc:@u_net/conv1_1/W_conv2d"
      }
    }
  }
}
node {
  name: "u_net/conv1_1/summaries/Rank"
  op: "Const"
  attr {
    key: "dtype"
    value {
      type: DT_INT32
    }
  }
  attr {
    key: "value"
    value {
      tensor {
        dtype: DT_INT32
        tensor_shape {
        }
        int_val: 4
      }
    }
  }
}
node {
  name: "u_net/conv1_1/summaries/range/start"
  op: "Const"
  attr {
    key: "dtype"
    value {
      type: DT_INT32
    }
  }
  attr {
    key: "value"
    value {
      tensor {
        dtype: DT_INT32
        tensor_shape {
        }
        int_val: 0
      }
    }
  }
}
node {
  name: "u_net/conv1_1/summaries/range/delta"
  op: "Const"
  attr {
    key: "dtype"
    value {
      type: DT_INT32
    }
  }
  attr {
    key: "value"
    value {
      tensor {
        dtype: DT_INT32
        tensor_shape {
        }
        int_val: 1
      }
    }
  }
}
node {
  name: "u_net/conv1_1/summaries/range"
  op: "Range"
  input: "u_net/conv1_1/summaries/range/start"
  input: "u_net/conv1_1/summaries/Rank"
  input: "u_net/conv1_1/summaries/range/delta"
  attr {
    key: "Tidx"
    value {
      type: DT_INT32
    }
  }
}
node {
  name: "u_net/conv1_1/summaries/Mean"
  op: "Mean"
  input: "u_net/conv1_1/W_conv2d/read"
  input: "u_net/conv1_1/summaries/range"
  attr {
    key: "T"
    value {
      type: DT_FLOAT
    }
  }
  attr {
    key: "Tidx"
    value {
      type: DT_INT32
    }
  }
  attr {
    key: "keep_dims"
    value {
      b: false
    }
  }
}
node {
  name: "u_net/conv1_1/summaries/mean/Weights/tags"
  op: "Const"
  attr {
    key: "dtype"
    value {
      type: DT_STRING
    }
  }
  attr {
    key: "value"
    value {
      tensor {
        dtype: DT_STRING
        tensor_shape {
        }
        string_val: "u_net/conv1_1/summaries/mean/Weights"
      }
    }
  }
}
node {
  name: "u_net/conv1_1/summaries/mean/Weights"
  op: "ScalarSummary"
  input: "u_net/conv1_1/summaries/mean/Weights/tags"
  input: "u_net/conv1_1/summaries/Mean"
  attr {
    key: "T"
    value {
      type: DT_FLOAT
    }
  }
}
node {
  name: "u_net/conv1_1/summaries/stddev/sub"
  op: "Sub"
  input: "u_net/conv1_1/W_conv2d/read"
  input: "u_net/conv1_1/summaries/Mean"
  attr {
    key: "T"
    value {
      type: DT_FLOAT
    }
  }
}
node {
  name: "u_net/conv1_1/summaries/stddev/Square"
  op: "Square"
  input: "u_net/conv1_1/summaries/stddev/sub"
  attr {
    key: "T"
    value {
      type: DT_FLOAT
    }
  }
}
node {
  name: "u_net/conv1_1/summaries/stddev/Const"
  op: "Const"
  attr {
    key: "dtype"
    value {
      type: DT_INT32
    }
  }
  attr {
    key: "value"
    value {
      tensor {
        dtype: DT_INT32
        tensor_shape {
          dim {
            size: 4
          }
        }
        tensor_content: "\000\000\000\000\001\000\000\000\002\000\000\000\003\000\000\000"
      }
    }
  }
}
node {
  name: "u_net/conv1_1/summaries/stddev/Sum"
  op: "Sum"
  input: "u_net/conv1_1/summaries/stddev/Square"
  input: "u_net/conv1_1/summaries/stddev/Const"
  attr {
    key: "T"
    value {
      type: DT_FLOAT
    }
  }
  attr {
    key: "Tidx"
    value {
      type: DT_INT32
    }
  }
  attr {
    key: "keep_dims"
    value {
      b: false
    }
  }
}
node {
  name: "u_net/conv1_1/summaries/stddev/Sqrt"
  op: "Sqrt"
  input: "u_net/conv1_1/summaries/stddev/Sum"
  attr {
    key: "T"
    value {
      type: DT_FLOAT
    }
  }
}
node {
  name: "u_net/conv1_1/summaries/sttdev/Weights/tags"
  op: "Const"
  attr {
    key: "dtype"
    value {
      type: DT_STRING
    }
  }
  attr {
    key: "value"
    value {
      tensor {
        dtype: DT_STRING
        tensor_shape {
        }
        string_val: "u_net/conv1_1/summaries/sttdev/Weights"
      }
    }
  }
}
node {
  name: "u_net/conv1_1/summaries/sttdev/Weights"
  op: "ScalarSummary"
  input: "u_net/conv1_1/summaries/sttdev/Weights/tags"
  input: "u_net/conv1_1/summaries/stddev/Sqrt"
  attr {
    key: "T"
    value {
      type: DT_FLOAT
    }
  }
}
node {
  name: "u_net/conv1_1/summaries/Rank_1"
  op: "Const"
  attr {
    key: "dtype"
    value {
      type: DT_INT32
    }
  }
  attr {
    key: "value"
    value {
      tensor {
        dtype: DT_INT32
        tensor_shape {
        }
        int_val: 4
      }
    }
  }
}
node {
  name: "u_net/conv1_1/summaries/range_1/start"
  op: "Const"
  attr {
    key: "dtype"
    value {
      type: DT_INT32
    }
  }
  attr {
    key: "value"
    value {
      tensor {
        dtype: DT_INT32
        tensor_shape {
        }
        int_val: 0
      }
    }
  }
}
node {
  name: "u_net/conv1_1/summaries/range_1/delta"
  op: "Const"
  attr {
    key: "dtype"
    value {
      type: DT_INT32
    }
  }
  attr {
    key: "value"
    value {
      tensor {
        dtype: DT_INT32
        tensor_shape {
        }
        int_val: 1
      }
    }
  }
}
node {
  name: "u_net/conv1_1/summaries/range_1"
  op: "Range"
  input: "u_net/conv1_1/summaries/range_1/start"
  input: "u_net/conv1_1/summaries/Rank_1"
  input: "u_net/conv1_1/summaries/range_1/delta"
  attr {
    key: "Tidx"
    value {
      type: DT_INT32
    }
  }
}
node {
  name: "u_net/conv1_1/summaries/Max"
  op: "Max"
  input: "u_net/conv1_1/W_conv2d/read"
  input: "u_net/conv1_1/summaries/range_1"
  attr {
    key: "T"
    value {
      type: DT_FLOAT
    }
  }
  attr {
    key: "Tidx"
    value {
      type: DT_INT32
    }
  }
  attr {
    key: "keep_dims"
    value {
      b: false
    }
  }
}
node {
  name: "u_net/conv1_1/summaries/max/Weights/tags"
  op: "Const"
  attr {
    key: "dtype"
    value {
      type: DT_STRING
    }
  }
  attr {
    key: "value"
    value {
      tensor {
        dtype: DT_STRING
        tensor_shape {
        }
        string_val: "u_net/conv1_1/summaries/max/Weights"
      }
    }
  }
}
node {
  name: "u_net/conv1_1/summaries/max/Weights"
  op: "ScalarSummary"
  input: "u_net/conv1_1/summaries/max/Weights/tags"
  input: "u_net/conv1_1/summaries/Max"
  attr {
    key: "T"
    value {
      type: DT_FLOAT
    }
  }
}
node {
  name: "u_net/conv1_1/summaries/Rank_2"
  op: "Const"
  attr {
    key: "dtype"
    value {
      type: DT_INT32
    }
  }
  attr {
    key: "value"
    value {
      tensor {
        dtype: DT_INT32
        tensor_shape {
        }
        int_val: 4
      }
    }
  }
}
node {
  name: "u_net/conv1_1/summaries/range_2/start"
  op: "Const"
  attr {
    key: "dtype"
    value {
      type: DT_INT32
    }
  }
  attr {
    key: "value"
    value {
      tensor {
        dtype: DT_INT32
        tensor_shape {
        }
        int_val: 0
      }
    }
  }
}
node {
  name: "u_net/conv1_1/summaries/range_2/delta"
  op: "Const"
  attr {
    key: "dtype"
    value {
      type: DT_INT32
    }
  }
  attr {
    key: "value"
    value {
      tensor {
        dtype: DT_INT32
        tensor_shape {
        }
        int_val: 1
      }
    }
  }
}
node {
  name: "u_net/conv1_1/summaries/range_2"
  op: "Range"
  input: "u_net/conv1_1/summaries/range_2/start"
  input: "u_net/conv1_1/summaries/Rank_2"
  input: "u_net/conv1_1/summaries/range_2/delta"
  attr {
    key: "Tidx"
    value {
      type: DT_INT32
    }
  }
}
node {
  name: "u_net/conv1_1/summaries/Min"
  op: "Min"
  input: "u_net/conv1_1/W_conv2d/read"
  input: "u_net/conv1_1/summaries/range_2"
  attr {
    key: "T"
    value {
      type: DT_FLOAT
    }
  }
  attr {
    key: "Tidx"
    value {
      type: DT_INT32
    }
  }
  attr {
    key: "keep_dims"
    value {
      b: false
    }
  }
}
node {
  name: "u_net/conv1_1/summaries/min/Weights/tags"
  op: "Const"
  attr {
    key: "dtype"
    value {
      type: DT_STRING
    }
  }
  attr {
    key: "value"
    value {
      tensor {
        dtype: DT_STRING
        tensor_shape {
        }
        string_val: "u_net/conv1_1/summaries/min/Weights"
      }
    }
  }
}
node {
  name: "u_net/conv1_1/summaries/min/Weights"
  op: "ScalarSummary"
  input: "u_net/conv1_1/summaries/min/Weights/tags"
  input: "u_net/conv1_1/summaries/Min"
  attr {
    key: "T"
    value {
      type: DT_FLOAT
    }
  }
}
node {
  name: "u_net/conv1_1/b_conv2d/Initializer/Const"
  op: "Const"
  attr {
    key: "_class"
    value {
      list {
        s: "loc:@u_net/conv1_1/b_conv2d"
      }
    }
  }
  attr {
    key: "dtype"
    value {
      type: DT_FLOAT
    }
  }
  attr {
    key: "value"
    value {
      tensor {
        dtype: DT_FLOAT
        tensor_shape {
          dim {
            size: 64
          }
        }
        float_val: 0.0
      }
    }
  }
}
node {
  name: "u_net/conv1_1/b_conv2d"
  op: "VariableV2"
  attr {
    key: "_class"
    value {
      list {
        s: "loc:@u_net/conv1_1/b_conv2d"
      }
    }
  }
  attr {
    key: "container"
    value {
      s: ""
    }
  }
  attr {
    key: "dtype"
    value {
      type: DT_FLOAT
    }
  }
  attr {
    key: "shape"
    value {
      shape {
        dim {
          size: 64
        }
      }
    }
  }
  attr {
    key: "shared_name"
    value {
      s: ""
    }
  }
}
node {
  name: "u_net/conv1_1/b_conv2d/Assign"
  op: "Assign"
  input: "u_net/conv1_1/b_conv2d"
  input: "u_net/conv1_1/b_conv2d/Initializer/Const"
  attr {
    key: "T"
    value {
      type: DT_FLOAT
    }
  }
  attr {
    key: "_class"
    value {
      list {
        s: "loc:@u_net/conv1_1/b_conv2d"
      }
    }
  }
  attr {
    key: "use_locking"
    value {
      b: true
    }
  }
  attr {
    key: "validate_shape"
    value {
      b: true
    }
  }
}
node {
  name: "u_net/conv1_1/b_conv2d/read"
  op: "Identity"
  input: "u_net/conv1_1/b_conv2d"
  attr {
    key: "T"
    value {
      type: DT_FLOAT
    }
  }
  attr {
    key: "_class"
    value {
      list {
        s: "loc:@u_net/conv1_1/b_conv2d"
      }
    }
  }
}
node {
  name: "u_net/conv1_1/summaries_1/Rank"
  op: "Const"
  attr {
    key: "dtype"
    value {
      type: DT_INT32
    }
  }
  attr {
    key: "value"
    value {
      tensor {
        dtype: DT_INT32
        tensor_shape {
        }
        int_val: 1
      }
    }
  }
}
node {
  name: "u_net/conv1_1/summaries_1/range/start"
  op: "Const"
  attr {
    key: "dtype"
    value {
      type: DT_INT32
    }
  }
  attr {
    key: "value"
    value {
      tensor {
        dtype: DT_INT32
        tensor_shape {
        }
        int_val: 0
      }
    }
  }
}
node {
  name: "u_net/conv1_1/summaries_1/range/delta"
  op: "Const"
  attr {
    key: "dtype"
    value {
      type: DT_INT32
    }
  }
  attr {
    key: "value"
    value {
      tensor {
        dtype: DT_INT32
        tensor_shape {
        }
        int_val: 1
      }
    }
  }
}
node {
  name: "u_net/conv1_1/summaries_1/range"
  op: "Range"
  input: "u_net/conv1_1/summaries_1/range/start"
  input: "u_net/conv1_1/summaries_1/Rank"
  input: "u_net/conv1_1/summaries_1/range/delta"
  attr {
    key: "Tidx"
    value {
      type: DT_INT32
    }
  }
}
node {
  name: "u_net/conv1_1/summaries_1/Mean"
  op: "Mean"
  input: "u_net/conv1_1/b_conv2d/read"
  input: "u_net/conv1_1/summaries_1/range"
  attr {
    key: "T"
    value {
      type: DT_FLOAT
    }
  }
  attr {
    key: "Tidx"
    value {
      type: DT_INT32
    }
  }
  attr {
    key: "keep_dims"
    value {
      b: false
    }
  }
}
node {
  name: "u_net/conv1_1/summaries_1/mean/Biases/tags"
  op: "Const"
  attr {
    key: "dtype"
    value {
      type: DT_STRING
    }
  }
  attr {
    key: "value"
    value {
      tensor {
        dtype: DT_STRING
        tensor_shape {
        }
        string_val: "u_net/conv1_1/summaries_1/mean/Biases"
      }
    }
  }
}
node {
  name: "u_net/conv1_1/summaries_1/mean/Biases"
  op: "ScalarSummary"
  input: "u_net/conv1_1/summaries_1/mean/Biases/tags"
  input: "u_net/conv1_1/summaries_1/Mean"
  attr {
    key: "T"
    value {
      type: DT_FLOAT
    }
  }
}
node {
  name: "u_net/conv1_1/summaries_1/stddev/sub"
  op: "Sub"
  input: "u_net/conv1_1/b_conv2d/read"
  input: "u_net/conv1_1/summaries_1/Mean"
  attr {
    key: "T"
    value {
      type: DT_FLOAT
    }
  }
}
node {
  name: "u_net/conv1_1/summaries_1/stddev/Square"
  op: "Square"
  input: "u_net/conv1_1/summaries_1/stddev/sub"
  attr {
    key: "T"
    value {
      type: DT_FLOAT
    }
  }
}
node {
  name: "u_net/conv1_1/summaries_1/stddev/Const"
  op: "Const"
  attr {
    key: "dtype"
    value {
      type: DT_INT32
    }
  }
  attr {
    key: "value"
    value {
      tensor {
        dtype: DT_INT32
        tensor_shape {
          dim {
            size: 1
          }
        }
        int_val: 0
      }
    }
  }
}
node {
  name: "u_net/conv1_1/summaries_1/stddev/Sum"
  op: "Sum"
  input: "u_net/conv1_1/summaries_1/stddev/Square"
  input: "u_net/conv1_1/summaries_1/stddev/Const"
  attr {
    key: "T"
    value {
      type: DT_FLOAT
    }
  }
  attr {
    key: "Tidx"
    value {
      type: DT_INT32
    }
  }
  attr {
    key: "keep_dims"
    value {
      b: false
    }
  }
}
node {
  name: "u_net/conv1_1/summaries_1/stddev/Sqrt"
  op: "Sqrt"
  input: "u_net/conv1_1/summaries_1/stddev/Sum"
  attr {
    key: "T"
    value {
      type: DT_FLOAT
    }
  }
}
node {
  name: "u_net/conv1_1/summaries_1/sttdev/Biases/tags"
  op: "Const"
  attr {
    key: "dtype"
    value {
      type: DT_STRING
    }
  }
  attr {
    key: "value"
    value {
      tensor {
        dtype: DT_STRING
        tensor_shape {
        }
        string_val: "u_net/conv1_1/summaries_1/sttdev/Biases"
      }
    }
  }
}
node {
  name: "u_net/conv1_1/summaries_1/sttdev/Biases"
  op: "ScalarSummary"
  input: "u_net/conv1_1/summaries_1/sttdev/Biases/tags"
  input: "u_net/conv1_1/summaries_1/stddev/Sqrt"
  attr {
    key: "T"
    value {
      type: DT_FLOAT
    }
  }
}
node {
  name: "u_net/conv1_1/summaries_1/Rank_1"
  op: "Const"
  attr {
    key: "dtype"
    value {
      type: DT_INT32
    }
  }
  attr {
    key: "value"
    value {
      tensor {
        dtype: DT_INT32
        tensor_shape {
        }
        int_val: 1
      }
    }
  }
}
node {
  name: "u_net/conv1_1/summaries_1/range_1/start"
  op: "Const"
  attr {
    key: "dtype"
    value {
      type: DT_INT32
    }
  }
  attr {
    key: "value"
    value {
      tensor {
        dtype: DT_INT32
        tensor_shape {
        }
        int_val: 0
      }
    }
  }
}
node {
  name: "u_net/conv1_1/summaries_1/range_1/delta"
  op: "Const"
  attr {
    key: "dtype"
    value {
      type: DT_INT32
    }
  }
  attr {
    key: "value"
    value {
      tensor {
        dtype: DT_INT32
        tensor_shape {
        }
        int_val: 1
      }
    }
  }
}
node {
  name: "u_net/conv1_1/summaries_1/range_1"
  op: "Range"
  input: "u_net/conv1_1/summaries_1/range_1/start"
  input: "u_net/conv1_1/summaries_1/Rank_1"
  input: "u_net/conv1_1/summaries_1/range_1/delta"
  attr {
    key: "Tidx"
    value {
      type: DT_INT32
    }
  }
}
node {
  name: "u_net/conv1_1/summaries_1/Max"
  op: "Max"
  input: "u_net/conv1_1/b_conv2d/read"
  input: "u_net/conv1_1/summaries_1/range_1"
  attr {
    key: "T"
    value {
      type: DT_FLOAT
    }
  }
  attr {
    key: "Tidx"
    value {
      type: DT_INT32
    }
  }
  attr {
    key: "keep_dims"
    value {
      b: false
    }
  }
}
node {
  name: "u_net/conv1_1/summaries_1/max/Biases/tags"
  op: "Const"
  attr {
    key: "dtype"
    value {
      type: DT_STRING
    }
  }
  attr {
    key: "value"
    value {
      tensor {
        dtype: DT_STRING
        tensor_shape {
        }
        string_val: "u_net/conv1_1/summaries_1/max/Biases"
      }
    }
  }
}
node {
  name: "u_net/conv1_1/summaries_1/max/Biases"
  op: "ScalarSummary"
  input: "u_net/conv1_1/summaries_1/max/Biases/tags"
  input: "u_net/conv1_1/summaries_1/Max"
  attr {
    key: "T"
    value {
      type: DT_FLOAT
    }
  }
}
node {
  name: "u_net/conv1_1/summaries_1/Rank_2"
  op: "Const"
  attr {
    key: "dtype"
    value {
      type: DT_INT32
    }
  }
  attr {
    key: "value"
    value {
      tensor {
        dtype: DT_INT32
        tensor_shape {
        }
        int_val: 1
      }
    }
  }
}
node {
  name: "u_net/conv1_1/summaries_1/range_2/start"
  op: "Const"
  attr {
    key: "dtype"
    value {
      type: DT_INT32
    }
  }
  attr {
    key: "value"
    value {
      tensor {
        dtype: DT_INT32
        tensor_shape {
        }
        int_val: 0
      }
    }
  }
}
node {
  name: "u_net/conv1_1/summaries_1/range_2/delta"
  op: "Const"
  attr {
    key: "dtype"
    value {
      type: DT_INT32
    }
  }
  attr {
    key: "value"
    value {
      tensor {
        dtype: DT_INT32
        tensor_shape {
        }
        int_val: 1
      }
    }
  }
}
node {
  name: "u_net/conv1_1/summaries_1/range_2"
  op: "Range"
  input: "u_net/conv1_1/summaries_1/range_2/start"
  input: "u_net/conv1_1/summaries_1/Rank_2"
  input: "u_net/conv1_1/summaries_1/range_2/delta"
  attr {
    key: "Tidx"
    value {
      type: DT_INT32
    }
  }
}
node {
  name: "u_net/conv1_1/summaries_1/Min"
  op: "Min"
  input: "u_net/conv1_1/b_conv2d/read"
  input: "u_net/conv1_1/summaries_1/range_2"
  attr {
    key: "T"
    value {
      type: DT_FLOAT
    }
  }
  attr {
    key: "Tidx"
    value {
      type: DT_INT32
    }
  }
  attr {
    key: "keep_dims"
    value {
      b: false
    }
  }
}
node {
  name: "u_net/conv1_1/summaries_1/min/Biases/tags"
  op: "Const"
  attr {
    key: "dtype"
    value {
      type: DT_STRING
    }
  }
  attr {
    key: "value"
    value {
      tensor {
        dtype: DT_STRING
        tensor_shape {
        }
        string_val: "u_net/conv1_1/summaries_1/min/Biases"
      }
    }
  }
}
node {
  name: "u_net/conv1_1/summaries_1/min/Biases"
  op: "ScalarSummary"
  input: "u_net/conv1_1/summaries_1/min/Biases/tags"
  input: "u_net/conv1_1/summaries_1/Min"
  attr {
    key: "T"
    value {
      type: DT_FLOAT
    }
  }
}
node {
  name: "u_net/conv1_1/Conv2D"
  op: "Conv2D"
  input: "images"
  input: "u_net/conv1_1/W_conv2d/read"
  attr {
    key: "T"
    value {
      type: DT_FLOAT
    }
  }
  attr {
    key: "data_format"
    value {
      s: "NHWC"
    }
  }
  attr {
    key: "dilations"
    value {
      list {
        i: 1
        i: 1
        i: 1
        i: 1
      }
    }
  }
  attr {
    key: "padding"
    value {
      s: "SAME"
    }
  }
  attr {
    key: "strides"
    value {
      list {
        i: 1
        i: 1
        i: 1
        i: 1
      }
    }
  }
  attr {
    key: "use_cudnn_on_gpu"
    value {
      b: true
    }
  }
}
node {
  name: "u_net/conv1_1/add"
  op: "Add"
  input: "u_net/conv1_1/Conv2D"
  input: "u_net/conv1_1/b_conv2d/read"
  attr {
    key: "T"
    value {
      type: DT_FLOAT
    }
  }
}
node {
  name: "u_net/conv1_1/Relu"
  op: "Relu"
  input: "u_net/conv1_1/add"
  attr {
    key: "T"
    value {
      type: DT_FLOAT
    }
  }
}
node {
  name: "u_net/conv1_2/W_conv2d/Initializer/truncated_normal/shape"
  op: "Const"
  attr {
    key: "_class"
    value {
      list {
        s: "loc:@u_net/conv1_2/W_conv2d"
      }
    }
  }
  attr {
    key: "dtype"
    value {
      type: DT_INT32
    }
  }
  attr {
    key: "value"
    value {
      tensor {
        dtype: DT_INT32
        tensor_shape {
          dim {
            size: 4
          }
        }
        tensor_content: "\003\000\000\000\003\000\000\000@\000\000\000@\000\000\000"
      }
    }
  }
}
node {
  name: "u_net/conv1_2/W_conv2d/Initializer/truncated_normal/mean"
  op: "Const"
  attr {
    key: "_class"
    value {
      list {
        s: "loc:@u_net/conv1_2/W_conv2d"
      }
    }
  }
  attr {
    key: "dtype"
    value {
      type: DT_FLOAT
    }
  }
  attr {
    key: "value"
    value {
      tensor {
        dtype: DT_FLOAT
        tensor_shape {
        }
        float_val: 0.0
      }
    }
  }
}
node {
  name: "u_net/conv1_2/W_conv2d/Initializer/truncated_normal/stddev"
  op: "Const"
  attr {
    key: "_class"
    value {
      list {
        s: "loc:@u_net/conv1_2/W_conv2d"
      }
    }
  }
  attr {
    key: "dtype"
    value {
      type: DT_FLOAT
    }
  }
  attr {
    key: "value"
    value {
      tensor {
        dtype: DT_FLOAT
        tensor_shape {
        }
        float_val: 0.009999999776482582
      }
    }
  }
}
node {
  name: "u_net/conv1_2/W_conv2d/Initializer/truncated_normal/TruncatedNormal"
  op: "TruncatedNormal"
  input: "u_net/conv1_2/W_conv2d/Initializer/truncated_normal/shape"
  attr {
    key: "T"
    value {
      type: DT_INT32
    }
  }
  attr {
    key: "_class"
    value {
      list {
        s: "loc:@u_net/conv1_2/W_conv2d"
      }
    }
  }
  attr {
    key: "dtype"
    value {
      type: DT_FLOAT
    }
  }
  attr {
    key: "seed"
    value {
      i: 0
    }
  }
  attr {
    key: "seed2"
    value {
      i: 0
    }
  }
}
node {
  name: "u_net/conv1_2/W_conv2d/Initializer/truncated_normal/mul"
  op: "Mul"
  input: "u_net/conv1_2/W_conv2d/Initializer/truncated_normal/TruncatedNormal"
  input: "u_net/conv1_2/W_conv2d/Initializer/truncated_normal/stddev"
  attr {
    key: "T"
    value {
      type: DT_FLOAT
    }
  }
  attr {
    key: "_class"
    value {
      list {
        s: "loc:@u_net/conv1_2/W_conv2d"
      }
    }
  }
}
node {
  name: "u_net/conv1_2/W_conv2d/Initializer/truncated_normal"
  op: "Add"
  input: "u_net/conv1_2/W_conv2d/Initializer/truncated_normal/mul"
  input: "u_net/conv1_2/W_conv2d/Initializer/truncated_normal/mean"
  attr {
    key: "T"
    value {
      type: DT_FLOAT
    }
  }
  attr {
    key: "_class"
    value {
      list {
        s: "loc:@u_net/conv1_2/W_conv2d"
      }
    }
  }
}
node {
  name: "u_net/conv1_2/W_conv2d"
  op: "VariableV2"
  attr {
    key: "_class"
    value {
      list {
        s: "loc:@u_net/conv1_2/W_conv2d"
      }
    }
  }
  attr {
    key: "container"
    value {
      s: ""
    }
  }
  attr {
    key: "dtype"
    value {
      type: DT_FLOAT
    }
  }
  attr {
    key: "shape"
    value {
      shape {
        dim {
          size: 3
        }
        dim {
          size: 3
        }
        dim {
          size: 64
        }
        dim {
          size: 64
        }
      }
    }
  }
  attr {
    key: "shared_name"
    value {
      s: ""
    }
  }
}
node {
  name: "u_net/conv1_2/W_conv2d/Assign"
  op: "Assign"
  input: "u_net/conv1_2/W_conv2d"
  input: "u_net/conv1_2/W_conv2d/Initializer/truncated_normal"
  attr {
    key: "T"
    value {
      type: DT_FLOAT
    }
  }
  attr {
    key: "_class"
    value {
      list {
        s: "loc:@u_net/conv1_2/W_conv2d"
      }
    }
  }
  attr {
    key: "use_locking"
    value {
      b: true
    }
  }
  attr {
    key: "validate_shape"
    value {
      b: true
    }
  }
}
node {
  name: "u_net/conv1_2/W_conv2d/read"
  op: "Identity"
  input: "u_net/conv1_2/W_conv2d"
  attr {
    key: "T"
    value {
      type: DT_FLOAT
    }
  }
  attr {
    key: "_class"
    value {
      list {
        s: "loc:@u_net/conv1_2/W_conv2d"
      }
    }
  }
}
node {
  name: "u_net/conv1_2/summaries/Rank"
  op: "Const"
  attr {
    key: "dtype"
    value {
      type: DT_INT32
    }
  }
  attr {
    key: "value"
    value {
      tensor {
        dtype: DT_INT32
        tensor_shape {
        }
        int_val: 4
      }
    }
  }
}
node {
  name: "u_net/conv1_2/summaries/range/start"
  op: "Const"
  attr {
    key: "dtype"
    value {
      type: DT_INT32
    }
  }
  attr {
    key: "value"
    value {
      tensor {
        dtype: DT_INT32
        tensor_shape {
        }
        int_val: 0
      }
    }
  }
}
node {
  name: "u_net/conv1_2/summaries/range/delta"
  op: "Const"
  attr {
    key: "dtype"
    value {
      type: DT_INT32
    }
  }
  attr {
    key: "value"
    value {
      tensor {
        dtype: DT_INT32
        tensor_shape {
        }
        int_val: 1
      }
    }
  }
}
node {
  name: "u_net/conv1_2/summaries/range"
  op: "Range"
  input: "u_net/conv1_2/summaries/range/start"
  input: "u_net/conv1_2/summaries/Rank"
  input: "u_net/conv1_2/summaries/range/delta"
  attr {
    key: "Tidx"
    value {
      type: DT_INT32
    }
  }
}
node {
  name: "u_net/conv1_2/summaries/Mean"
  op: "Mean"
  input: "u_net/conv1_2/W_conv2d/read"
  input: "u_net/conv1_2/summaries/range"
  attr {
    key: "T"
    value {
      type: DT_FLOAT
    }
  }
  attr {
    key: "Tidx"
    value {
      type: DT_INT32
    }
  }
  attr {
    key: "keep_dims"
    value {
      b: false
    }
  }
}
node {
  name: "u_net/conv1_2/summaries/mean/Weights/tags"
  op: "Const"
  attr {
    key: "dtype"
    value {
      type: DT_STRING
    }
  }
  attr {
    key: "value"
    value {
      tensor {
        dtype: DT_STRING
        tensor_shape {
        }
        string_val: "u_net/conv1_2/summaries/mean/Weights"
      }
    }
  }
}
node {
  name: "u_net/conv1_2/summaries/mean/Weights"
  op: "ScalarSummary"
  input: "u_net/conv1_2/summaries/mean/Weights/tags"
  input: "u_net/conv1_2/summaries/Mean"
  attr {
    key: "T"
    value {
      type: DT_FLOAT
    }
  }
}
node {
  name: "u_net/conv1_2/summaries/stddev/sub"
  op: "Sub"
  input: "u_net/conv1_2/W_conv2d/read"
  input: "u_net/conv1_2/summaries/Mean"
  attr {
    key: "T"
    value {
      type: DT_FLOAT
    }
  }
}
node {
  name: "u_net/conv1_2/summaries/stddev/Square"
  op: "Square"
  input: "u_net/conv1_2/summaries/stddev/sub"
  attr {
    key: "T"
    value {
      type: DT_FLOAT
    }
  }
}
node {
  name: "u_net/conv1_2/summaries/stddev/Const"
  op: "Const"
  attr {
    key: "dtype"
    value {
      type: DT_INT32
    }
  }
  attr {
    key: "value"
    value {
      tensor {
        dtype: DT_INT32
        tensor_shape {
          dim {
            size: 4
          }
        }
        tensor_content: "\000\000\000\000\001\000\000\000\002\000\000\000\003\000\000\000"
      }
    }
  }
}
node {
  name: "u_net/conv1_2/summaries/stddev/Sum"
  op: "Sum"
  input: "u_net/conv1_2/summaries/stddev/Square"
  input: "u_net/conv1_2/summaries/stddev/Const"
  attr {
    key: "T"
    value {
      type: DT_FLOAT
    }
  }
  attr {
    key: "Tidx"
    value {
      type: DT_INT32
    }
  }
  attr {
    key: "keep_dims"
    value {
      b: false
    }
  }
}
node {
  name: "u_net/conv1_2/summaries/stddev/Sqrt"
  op: "Sqrt"
  input: "u_net/conv1_2/summaries/stddev/Sum"
  attr {
    key: "T"
    value {
      type: DT_FLOAT
    }
  }
}
node {
  name: "u_net/conv1_2/summaries/sttdev/Weights/tags"
  op: "Const"
  attr {
    key: "dtype"
    value {
      type: DT_STRING
    }
  }
  attr {
    key: "value"
    value {
      tensor {
        dtype: DT_STRING
        tensor_shape {
        }
        string_val: "u_net/conv1_2/summaries/sttdev/Weights"
      }
    }
  }
}
node {
  name: "u_net/conv1_2/summaries/sttdev/Weights"
  op: "ScalarSummary"
  input: "u_net/conv1_2/summaries/sttdev/Weights/tags"
  input: "u_net/conv1_2/summaries/stddev/Sqrt"
  attr {
    key: "T"
    value {
      type: DT_FLOAT
    }
  }
}
node {
  name: "u_net/conv1_2/summaries/Rank_1"
  op: "Const"
  attr {
    key: "dtype"
    value {
      type: DT_INT32
    }
  }
  attr {
    key: "value"
    value {
      tensor {
        dtype: DT_INT32
        tensor_shape {
        }
        int_val: 4
      }
    }
  }
}
node {
  name: "u_net/conv1_2/summaries/range_1/start"
  op: "Const"
  attr {
    key: "dtype"
    value {
      type: DT_INT32
    }
  }
  attr {
    key: "value"
    value {
      tensor {
        dtype: DT_INT32
        tensor_shape {
        }
        int_val: 0
      }
    }
  }
}
node {
  name: "u_net/conv1_2/summaries/range_1/delta"
  op: "Const"
  attr {
    key: "dtype"
    value {
      type: DT_INT32
    }
  }
  attr {
    key: "value"
    value {
      tensor {
        dtype: DT_INT32
        tensor_shape {
        }
        int_val: 1
      }
    }
  }
}
node {
  name: "u_net/conv1_2/summaries/range_1"
  op: "Range"
  input: "u_net/conv1_2/summaries/range_1/start"
  input: "u_net/conv1_2/summaries/Rank_1"
  input: "u_net/conv1_2/summaries/range_1/delta"
  attr {
    key: "Tidx"
    value {
      type: DT_INT32
    }
  }
}
node {
  name: "u_net/conv1_2/summaries/Max"
  op: "Max"
  input: "u_net/conv1_2/W_conv2d/read"
  input: "u_net/conv1_2/summaries/range_1"
  attr {
    key: "T"
    value {
      type: DT_FLOAT
    }
  }
  attr {
    key: "Tidx"
    value {
      type: DT_INT32
    }
  }
  attr {
    key: "keep_dims"
    value {
      b: false
    }
  }
}
node {
  name: "u_net/conv1_2/summaries/max/Weights/tags"
  op: "Const"
  attr {
    key: "dtype"
    value {
      type: DT_STRING
    }
  }
  attr {
    key: "value"
    value {
      tensor {
        dtype: DT_STRING
        tensor_shape {
        }
        string_val: "u_net/conv1_2/summaries/max/Weights"
      }
    }
  }
}
node {
  name: "u_net/conv1_2/summaries/max/Weights"
  op: "ScalarSummary"
  input: "u_net/conv1_2/summaries/max/Weights/tags"
  input: "u_net/conv1_2/summaries/Max"
  attr {
    key: "T"
    value {
      type: DT_FLOAT
    }
  }
}
node {
  name: "u_net/conv1_2/summaries/Rank_2"
  op: "Const"
  attr {
    key: "dtype"
    value {
      type: DT_INT32
    }
  }
  attr {
    key: "value"
    value {
      tensor {
        dtype: DT_INT32
        tensor_shape {
        }
        int_val: 4
      }
    }
  }
}
node {
  name: "u_net/conv1_2/summaries/range_2/start"
  op: "Const"
  attr {
    key: "dtype"
    value {
      type: DT_INT32
    }
  }
  attr {
    key: "value"
    value {
      tensor {
        dtype: DT_INT32
        tensor_shape {
        }
        int_val: 0
      }
    }
  }
}
node {
  name: "u_net/conv1_2/summaries/range_2/delta"
  op: "Const"
  attr {
    key: "dtype"
    value {
      type: DT_INT32
    }
  }
  attr {
    key: "value"
    value {
      tensor {
        dtype: DT_INT32
        tensor_shape {
        }
        int_val: 1
      }
    }
  }
}
node {
  name: "u_net/conv1_2/summaries/range_2"
  op: "Range"
  input: "u_net/conv1_2/summaries/range_2/start"
  input: "u_net/conv1_2/summaries/Rank_2"
  input: "u_net/conv1_2/summaries/range_2/delta"
  attr {
    key: "Tidx"
    value {
      type: DT_INT32
    }
  }
}
node {
  name: "u_net/conv1_2/summaries/Min"
  op: "Min"
  input: "u_net/conv1_2/W_conv2d/read"
  input: "u_net/conv1_2/summaries/range_2"
  attr {
    key: "T"
    value {
      type: DT_FLOAT
    }
  }
  attr {
    key: "Tidx"
    value {
      type: DT_INT32
    }
  }
  attr {
    key: "keep_dims"
    value {
      b: false
    }
  }
}
node {
  name: "u_net/conv1_2/summaries/min/Weights/tags"
  op: "Const"
  attr {
    key: "dtype"
    value {
      type: DT_STRING
    }
  }
  attr {
    key: "value"
    value {
      tensor {
        dtype: DT_STRING
        tensor_shape {
        }
        string_val: "u_net/conv1_2/summaries/min/Weights"
      }
    }
  }
}
node {
  name: "u_net/conv1_2/summaries/min/Weights"
  op: "ScalarSummary"
  input: "u_net/conv1_2/summaries/min/Weights/tags"
  input: "u_net/conv1_2/summaries/Min"
  attr {
    key: "T"
    value {
      type: DT_FLOAT
    }
  }
}
node {
  name: "u_net/conv1_2/b_conv2d/Initializer/Const"
  op: "Const"
  attr {
    key: "_class"
    value {
      list {
        s: "loc:@u_net/conv1_2/b_conv2d"
      }
    }
  }
  attr {
    key: "dtype"
    value {
      type: DT_FLOAT
    }
  }
  attr {
    key: "value"
    value {
      tensor {
        dtype: DT_FLOAT
        tensor_shape {
          dim {
            size: 64
          }
        }
        float_val: 0.0
      }
    }
  }
}
node {
  name: "u_net/conv1_2/b_conv2d"
  op: "VariableV2"
  attr {
    key: "_class"
    value {
      list {
        s: "loc:@u_net/conv1_2/b_conv2d"
      }
    }
  }
  attr {
    key: "container"
    value {
      s: ""
    }
  }
  attr {
    key: "dtype"
    value {
      type: DT_FLOAT
    }
  }
  attr {
    key: "shape"
    value {
      shape {
        dim {
          size: 64
        }
      }
    }
  }
  attr {
    key: "shared_name"
    value {
      s: ""
    }
  }
}
node {
  name: "u_net/conv1_2/b_conv2d/Assign"
  op: "Assign"
  input: "u_net/conv1_2/b_conv2d"
  input: "u_net/conv1_2/b_conv2d/Initializer/Const"
  attr {
    key: "T"
    value {
      type: DT_FLOAT
    }
  }
  attr {
    key: "_class"
    value {
      list {
        s: "loc:@u_net/conv1_2/b_conv2d"
      }
    }
  }
  attr {
    key: "use_locking"
    value {
      b: true
    }
  }
  attr {
    key: "validate_shape"
    value {
      b: true
    }
  }
}
node {
  name: "u_net/conv1_2/b_conv2d/read"
  op: "Identity"
  input: "u_net/conv1_2/b_conv2d"
  attr {
    key: "T"
    value {
      type: DT_FLOAT
    }
  }
  attr {
    key: "_class"
    value {
      list {
        s: "loc:@u_net/conv1_2/b_conv2d"
      }
    }
  }
}
node {
  name: "u_net/conv1_2/summaries_1/Rank"
  op: "Const"
  attr {
    key: "dtype"
    value {
      type: DT_INT32
    }
  }
  attr {
    key: "value"
    value {
      tensor {
        dtype: DT_INT32
        tensor_shape {
        }
        int_val: 1
      }
    }
  }
}
node {
  name: "u_net/conv1_2/summaries_1/range/start"
  op: "Const"
  attr {
    key: "dtype"
    value {
      type: DT_INT32
    }
  }
  attr {
    key: "value"
    value {
      tensor {
        dtype: DT_INT32
        tensor_shape {
        }
        int_val: 0
      }
    }
  }
}
node {
  name: "u_net/conv1_2/summaries_1/range/delta"
  op: "Const"
  attr {
    key: "dtype"
    value {
      type: DT_INT32
    }
  }
  attr {
    key: "value"
    value {
      tensor {
        dtype: DT_INT32
        tensor_shape {
        }
        int_val: 1
      }
    }
  }
}
node {
  name: "u_net/conv1_2/summaries_1/range"
  op: "Range"
  input: "u_net/conv1_2/summaries_1/range/start"
  input: "u_net/conv1_2/summaries_1/Rank"
  input: "u_net/conv1_2/summaries_1/range/delta"
  attr {
    key: "Tidx"
    value {
      type: DT_INT32
    }
  }
}
node {
  name: "u_net/conv1_2/summaries_1/Mean"
  op: "Mean"
  input: "u_net/conv1_2/b_conv2d/read"
  input: "u_net/conv1_2/summaries_1/range"
  attr {
    key: "T"
    value {
      type: DT_FLOAT
    }
  }
  attr {
    key: "Tidx"
    value {
      type: DT_INT32
    }
  }
  attr {
    key: "keep_dims"
    value {
      b: false
    }
  }
}
node {
  name: "u_net/conv1_2/summaries_1/mean/Biases/tags"
  op: "Const"
  attr {
    key: "dtype"
    value {
      type: DT_STRING
    }
  }
  attr {
    key: "value"
    value {
      tensor {
        dtype: DT_STRING
        tensor_shape {
        }
        string_val: "u_net/conv1_2/summaries_1/mean/Biases"
      }
    }
  }
}
node {
  name: "u_net/conv1_2/summaries_1/mean/Biases"
  op: "ScalarSummary"
  input: "u_net/conv1_2/summaries_1/mean/Biases/tags"
  input: "u_net/conv1_2/summaries_1/Mean"
  attr {
    key: "T"
    value {
      type: DT_FLOAT
    }
  }
}
node {
  name: "u_net/conv1_2/summaries_1/stddev/sub"
  op: "Sub"
  input: "u_net/conv1_2/b_conv2d/read"
  input: "u_net/conv1_2/summaries_1/Mean"
  attr {
    key: "T"
    value {
      type: DT_FLOAT
    }
  }
}
node {
  name: "u_net/conv1_2/summaries_1/stddev/Square"
  op: "Square"
  input: "u_net/conv1_2/summaries_1/stddev/sub"
  attr {
    key: "T"
    value {
      type: DT_FLOAT
    }
  }
}
node {
  name: "u_net/conv1_2/summaries_1/stddev/Const"
  op: "Const"
  attr {
    key: "dtype"
    value {
      type: DT_INT32
    }
  }
  attr {
    key: "value"
    value {
      tensor {
        dtype: DT_INT32
        tensor_shape {
          dim {
            size: 1
          }
        }
        int_val: 0
      }
    }
  }
}
node {
  name: "u_net/conv1_2/summaries_1/stddev/Sum"
  op: "Sum"
  input: "u_net/conv1_2/summaries_1/stddev/Square"
  input: "u_net/conv1_2/summaries_1/stddev/Const"
  attr {
    key: "T"
    value {
      type: DT_FLOAT
    }
  }
  attr {
    key: "Tidx"
    value {
      type: DT_INT32
    }
  }
  attr {
    key: "keep_dims"
    value {
      b: false
    }
  }
}
node {
  name: "u_net/conv1_2/summaries_1/stddev/Sqrt"
  op: "Sqrt"
  input: "u_net/conv1_2/summaries_1/stddev/Sum"
  attr {
    key: "T"
    value {
      type: DT_FLOAT
    }
  }
}
node {
  name: "u_net/conv1_2/summaries_1/sttdev/Biases/tags"
  op: "Const"
  attr {
    key: "dtype"
    value {
      type: DT_STRING
    }
  }
  attr {
    key: "value"
    value {
      tensor {
        dtype: DT_STRING
        tensor_shape {
        }
        string_val: "u_net/conv1_2/summaries_1/sttdev/Biases"
      }
    }
  }
}
node {
  name: "u_net/conv1_2/summaries_1/sttdev/Biases"
  op: "ScalarSummary"
  input: "u_net/conv1_2/summaries_1/sttdev/Biases/tags"
  input: "u_net/conv1_2/summaries_1/stddev/Sqrt"
  attr {
    key: "T"
    value {
      type: DT_FLOAT
    }
  }
}
node {
  name: "u_net/conv1_2/summaries_1/Rank_1"
  op: "Const"
  attr {
    key: "dtype"
    value {
      type: DT_INT32
    }
  }
  attr {
    key: "value"
    value {
      tensor {
        dtype: DT_INT32
        tensor_shape {
        }
        int_val: 1
      }
    }
  }
}
node {
  name: "u_net/conv1_2/summaries_1/range_1/start"
  op: "Const"
  attr {
    key: "dtype"
    value {
      type: DT_INT32
    }
  }
  attr {
    key: "value"
    value {
      tensor {
        dtype: DT_INT32
        tensor_shape {
        }
        int_val: 0
      }
    }
  }
}
node {
  name: "u_net/conv1_2/summaries_1/range_1/delta"
  op: "Const"
  attr {
    key: "dtype"
    value {
      type: DT_INT32
    }
  }
  attr {
    key: "value"
    value {
      tensor {
        dtype: DT_INT32
        tensor_shape {
        }
        int_val: 1
      }
    }
  }
}
node {
  name: "u_net/conv1_2/summaries_1/range_1"
  op: "Range"
  input: "u_net/conv1_2/summaries_1/range_1/start"
  input: "u_net/conv1_2/summaries_1/Rank_1"
  input: "u_net/conv1_2/summaries_1/range_1/delta"
  attr {
    key: "Tidx"
    value {
      type: DT_INT32
    }
  }
}
node {
  name: "u_net/conv1_2/summaries_1/Max"
  op: "Max"
  input: "u_net/conv1_2/b_conv2d/read"
  input: "u_net/conv1_2/summaries_1/range_1"
  attr {
    key: "T"
    value {
      type: DT_FLOAT
    }
  }
  attr {
    key: "Tidx"
    value {
      type: DT_INT32
    }
  }
  attr {
    key: "keep_dims"
    value {
      b: false
    }
  }
}
node {
  name: "u_net/conv1_2/summaries_1/max/Biases/tags"
  op: "Const"
  attr {
    key: "dtype"
    value {
      type: DT_STRING
    }
  }
  attr {
    key: "value"
    value {
      tensor {
        dtype: DT_STRING
        tensor_shape {
        }
        string_val: "u_net/conv1_2/summaries_1/max/Biases"
      }
    }
  }
}
node {
  name: "u_net/conv1_2/summaries_1/max/Biases"
  op: "ScalarSummary"
  input: "u_net/conv1_2/summaries_1/max/Biases/tags"
  input: "u_net/conv1_2/summaries_1/Max"
  attr {
    key: "T"
    value {
      type: DT_FLOAT
    }
  }
}
node {
  name: "u_net/conv1_2/summaries_1/Rank_2"
  op: "Const"
  attr {
    key: "dtype"
    value {
      type: DT_INT32
    }
  }
  attr {
    key: "value"
    value {
      tensor {
        dtype: DT_INT32
        tensor_shape {
        }
        int_val: 1
      }
    }
  }
}
node {
  name: "u_net/conv1_2/summaries_1/range_2/start"
  op: "Const"
  attr {
    key: "dtype"
    value {
      type: DT_INT32
    }
  }
  attr {
    key: "value"
    value {
      tensor {
        dtype: DT_INT32
        tensor_shape {
        }
        int_val: 0
      }
    }
  }
}
node {
  name: "u_net/conv1_2/summaries_1/range_2/delta"
  op: "Const"
  attr {
    key: "dtype"
    value {
      type: DT_INT32
    }
  }
  attr {
    key: "value"
    value {
      tensor {
        dtype: DT_INT32
        tensor_shape {
        }
        int_val: 1
      }
    }
  }
}
node {
  name: "u_net/conv1_2/summaries_1/range_2"
  op: "Range"
  input: "u_net/conv1_2/summaries_1/range_2/start"
  input: "u_net/conv1_2/summaries_1/Rank_2"
  input: "u_net/conv1_2/summaries_1/range_2/delta"
  attr {
    key: "Tidx"
    value {
      type: DT_INT32
    }
  }
}
node {
  name: "u_net/conv1_2/summaries_1/Min"
  op: "Min"
  input: "u_net/conv1_2/b_conv2d/read"
  input: "u_net/conv1_2/summaries_1/range_2"
  attr {
    key: "T"
    value {
      type: DT_FLOAT
    }
  }
  attr {
    key: "Tidx"
    value {
      type: DT_INT32
    }
  }
  attr {
    key: "keep_dims"
    value {
      b: false
    }
  }
}
node {
  name: "u_net/conv1_2/summaries_1/min/Biases/tags"
  op: "Const"
  attr {
    key: "dtype"
    value {
      type: DT_STRING
    }
  }
  attr {
    key: "value"
    value {
      tensor {
        dtype: DT_STRING
        tensor_shape {
        }
        string_val: "u_net/conv1_2/summaries_1/min/Biases"
      }
    }
  }
}
node {
  name: "u_net/conv1_2/summaries_1/min/Biases"
  op: "ScalarSummary"
  input: "u_net/conv1_2/summaries_1/min/Biases/tags"
  input: "u_net/conv1_2/summaries_1/Min"
  attr {
    key: "T"
    value {
      type: DT_FLOAT
    }
  }
}
node {
  name: "u_net/conv1_2/Conv2D"
  op: "Conv2D"
  input: "u_net/conv1_1/Relu"
  input: "u_net/conv1_2/W_conv2d/read"
  attr {
    key: "T"
    value {
      type: DT_FLOAT
    }
  }
  attr {
    key: "data_format"
    value {
      s: "NHWC"
    }
  }
  attr {
    key: "dilations"
    value {
      list {
        i: 1
        i: 1
        i: 1
        i: 1
      }
    }
  }
  attr {
    key: "padding"
    value {
      s: "SAME"
    }
  }
  attr {
    key: "strides"
    value {
      list {
        i: 1
        i: 1
        i: 1
        i: 1
      }
    }
  }
  attr {
    key: "use_cudnn_on_gpu"
    value {
      b: true
    }
  }
}
node {
  name: "u_net/conv1_2/add"
  op: "Add"
  input: "u_net/conv1_2/Conv2D"
  input: "u_net/conv1_2/b_conv2d/read"
  attr {
    key: "T"
    value {
      type: DT_FLOAT
    }
  }
}
node {
  name: "u_net/conv1_2/Relu"
  op: "Relu"
  input: "u_net/conv1_2/add"
  attr {
    key: "T"
    value {
      type: DT_FLOAT
    }
  }
}
node {
  name: "u_net/bn1/beta/Initializer/zeros"
  op: "Const"
  attr {
    key: "_class"
    value {
      list {
        s: "loc:@u_net/bn1/beta"
      }
    }
  }
  attr {
    key: "dtype"
    value {
      type: DT_FLOAT
    }
  }
  attr {
    key: "value"
    value {
      tensor {
        dtype: DT_FLOAT
        tensor_shape {
          dim {
            size: 64
          }
        }
        float_val: 0.0
      }
    }
  }
}
node {
  name: "u_net/bn1/beta"
  op: "VariableV2"
  attr {
    key: "_class"
    value {
      list {
        s: "loc:@u_net/bn1/beta"
      }
    }
  }
  attr {
    key: "container"
    value {
      s: ""
    }
  }
  attr {
    key: "dtype"
    value {
      type: DT_FLOAT
    }
  }
  attr {
    key: "shape"
    value {
      shape {
        dim {
          size: 64
        }
      }
    }
  }
  attr {
    key: "shared_name"
    value {
      s: ""
    }
  }
}
node {
  name: "u_net/bn1/beta/Assign"
  op: "Assign"
  input: "u_net/bn1/beta"
  input: "u_net/bn1/beta/Initializer/zeros"
  attr {
    key: "T"
    value {
      type: DT_FLOAT
    }
  }
  attr {
    key: "_class"
    value {
      list {
        s: "loc:@u_net/bn1/beta"
      }
    }
  }
  attr {
    key: "use_locking"
    value {
      b: true
    }
  }
  attr {
    key: "validate_shape"
    value {
      b: true
    }
  }
}
node {
  name: "u_net/bn1/beta/read"
  op: "Identity"
  input: "u_net/bn1/beta"
  attr {
    key: "T"
    value {
      type: DT_FLOAT
    }
  }
  attr {
    key: "_class"
    value {
      list {
        s: "loc:@u_net/bn1/beta"
      }
    }
  }
}
node {
  name: "u_net/bn1/gamma/Initializer/random_normal/shape"
  op: "Const"
  attr {
    key: "_class"
    value {
      list {
        s: "loc:@u_net/bn1/gamma"
      }
    }
  }
  attr {
    key: "dtype"
    value {
      type: DT_INT32
    }
  }
  attr {
    key: "value"
    value {
      tensor {
        dtype: DT_INT32
        tensor_shape {
          dim {
            size: 1
          }
        }
        int_val: 64
      }
    }
  }
}
node {
  name: "u_net/bn1/gamma/Initializer/random_normal/mean"
  op: "Const"
  attr {
    key: "_class"
    value {
      list {
        s: "loc:@u_net/bn1/gamma"
      }
    }
  }
  attr {
    key: "dtype"
    value {
      type: DT_FLOAT
    }
  }
  attr {
    key: "value"
    value {
      tensor {
        dtype: DT_FLOAT
        tensor_shape {
        }
        float_val: 1.0
      }
    }
  }
}
node {
  name: "u_net/bn1/gamma/Initializer/random_normal/stddev"
  op: "Const"
  attr {
    key: "_class"
    value {
      list {
        s: "loc:@u_net/bn1/gamma"
      }
    }
  }
  attr {
    key: "dtype"
    value {
      type: DT_FLOAT
    }
  }
  attr {
    key: "value"
    value {
      tensor {
        dtype: DT_FLOAT
        tensor_shape {
        }
        float_val: 0.019999999552965164
      }
    }
  }
}
node {
  name: "u_net/bn1/gamma/Initializer/random_normal/RandomStandardNormal"
  op: "RandomStandardNormal"
  input: "u_net/bn1/gamma/Initializer/random_normal/shape"
  attr {
    key: "T"
    value {
      type: DT_INT32
    }
  }
  attr {
    key: "_class"
    value {
      list {
        s: "loc:@u_net/bn1/gamma"
      }
    }
  }
  attr {
    key: "dtype"
    value {
      type: DT_FLOAT
    }
  }
  attr {
    key: "seed"
    value {
      i: 0
    }
  }
  attr {
    key: "seed2"
    value {
      i: 0
    }
  }
}
node {
  name: "u_net/bn1/gamma/Initializer/random_normal/mul"
  op: "Mul"
  input: "u_net/bn1/gamma/Initializer/random_normal/RandomStandardNormal"
  input: "u_net/bn1/gamma/Initializer/random_normal/stddev"
  attr {
    key: "T"
    value {
      type: DT_FLOAT
    }
  }
  attr {
    key: "_class"
    value {
      list {
        s: "loc:@u_net/bn1/gamma"
      }
    }
  }
}
node {
  name: "u_net/bn1/gamma/Initializer/random_normal"
  op: "Add"
  input: "u_net/bn1/gamma/Initializer/random_normal/mul"
  input: "u_net/bn1/gamma/Initializer/random_normal/mean"
  attr {
    key: "T"
    value {
      type: DT_FLOAT
    }
  }
  attr {
    key: "_class"
    value {
      list {
        s: "loc:@u_net/bn1/gamma"
      }
    }
  }
}
node {
  name: "u_net/bn1/gamma"
  op: "VariableV2"
  attr {
    key: "_class"
    value {
      list {
        s: "loc:@u_net/bn1/gamma"
      }
    }
  }
  attr {
    key: "container"
    value {
      s: ""
    }
  }
  attr {
    key: "dtype"
    value {
      type: DT_FLOAT
    }
  }
  attr {
    key: "shape"
    value {
      shape {
        dim {
          size: 64
        }
      }
    }
  }
  attr {
    key: "shared_name"
    value {
      s: ""
    }
  }
}
node {
  name: "u_net/bn1/gamma/Assign"
  op: "Assign"
  input: "u_net/bn1/gamma"
  input: "u_net/bn1/gamma/Initializer/random_normal"
  attr {
    key: "T"
    value {
      type: DT_FLOAT
    }
  }
  attr {
    key: "_class"
    value {
      list {
        s: "loc:@u_net/bn1/gamma"
      }
    }
  }
  attr {
    key: "use_locking"
    value {
      b: true
    }
  }
  attr {
    key: "validate_shape"
    value {
      b: true
    }
  }
}
node {
  name: "u_net/bn1/gamma/read"
  op: "Identity"
  input: "u_net/bn1/gamma"
  attr {
    key: "T"
    value {
      type: DT_FLOAT
    }
  }
  attr {
    key: "_class"
    value {
      list {
        s: "loc:@u_net/bn1/gamma"
      }
    }
  }
}
node {
  name: "u_net/bn1/moving_mean/Initializer/zeros"
  op: "Const"
  attr {
    key: "_class"
    value {
      list {
        s: "loc:@u_net/bn1/moving_mean"
      }
    }
  }
  attr {
    key: "dtype"
    value {
      type: DT_FLOAT
    }
  }
  attr {
    key: "value"
    value {
      tensor {
        dtype: DT_FLOAT
        tensor_shape {
          dim {
            size: 64
          }
        }
        float_val: 0.0
      }
    }
  }
}
node {
  name: "u_net/bn1/moving_mean"
  op: "VariableV2"
  attr {
    key: "_class"
    value {
      list {
        s: "loc:@u_net/bn1/moving_mean"
      }
    }
  }
  attr {
    key: "container"
    value {
      s: ""
    }
  }
  attr {
    key: "dtype"
    value {
      type: DT_FLOAT
    }
  }
  attr {
    key: "shape"
    value {
      shape {
        dim {
          size: 64
        }
      }
    }
  }
  attr {
    key: "shared_name"
    value {
      s: ""
    }
  }
}
node {
  name: "u_net/bn1/moving_mean/Assign"
  op: "Assign"
  input: "u_net/bn1/moving_mean"
  input: "u_net/bn1/moving_mean/Initializer/zeros"
  attr {
    key: "T"
    value {
      type: DT_FLOAT
    }
  }
  attr {
    key: "_class"
    value {
      list {
        s: "loc:@u_net/bn1/moving_mean"
      }
    }
  }
  attr {
    key: "use_locking"
    value {
      b: true
    }
  }
  attr {
    key: "validate_shape"
    value {
      b: true
    }
  }
}
node {
  name: "u_net/bn1/moving_mean/read"
  op: "Identity"
  input: "u_net/bn1/moving_mean"
  attr {
    key: "T"
    value {
      type: DT_FLOAT
    }
  }
  attr {
    key: "_class"
    value {
      list {
        s: "loc:@u_net/bn1/moving_mean"
      }
    }
  }
}
node {
  name: "u_net/bn1/moving_variance/Initializer/Const"
  op: "Const"
  attr {
    key: "_class"
    value {
      list {
        s: "loc:@u_net/bn1/moving_variance"
      }
    }
  }
  attr {
    key: "dtype"
    value {
      type: DT_FLOAT
    }
  }
  attr {
    key: "value"
    value {
      tensor {
        dtype: DT_FLOAT
        tensor_shape {
          dim {
            size: 64
          }
        }
        float_val: 1.0
      }
    }
  }
}
node {
  name: "u_net/bn1/moving_variance"
  op: "VariableV2"
  attr {
    key: "_class"
    value {
      list {
        s: "loc:@u_net/bn1/moving_variance"
      }
    }
  }
  attr {
    key: "container"
    value {
      s: ""
    }
  }
  attr {
    key: "dtype"
    value {
      type: DT_FLOAT
    }
  }
  attr {
    key: "shape"
    value {
      shape {
        dim {
          size: 64
        }
      }
    }
  }
  attr {
    key: "shared_name"
    value {
      s: ""
    }
  }
}
node {
  name: "u_net/bn1/moving_variance/Assign"
  op: "Assign"
  input: "u_net/bn1/moving_variance"
  input: "u_net/bn1/moving_variance/Initializer/Const"
  attr {
    key: "T"
    value {
      type: DT_FLOAT
    }
  }
  attr {
    key: "_class"
    value {
      list {
        s: "loc:@u_net/bn1/moving_variance"
      }
    }
  }
  attr {
    key: "use_locking"
    value {
      b: true
    }
  }
  attr {
    key: "validate_shape"
    value {
      b: true
    }
  }
}
node {
  name: "u_net/bn1/moving_variance/read"
  op: "Identity"
  input: "u_net/bn1/moving_variance"
  attr {
    key: "T"
    value {
      type: DT_FLOAT
    }
  }
  attr {
    key: "_class"
    value {
      list {
        s: "loc:@u_net/bn1/moving_variance"
      }
    }
  }
}
node {
  name: "u_net/bn1/moments/mean/reduction_indices"
  op: "Const"
  attr {
    key: "dtype"
    value {
      type: DT_INT32
    }
  }
  attr {
    key: "value"
    value {
      tensor {
        dtype: DT_INT32
        tensor_shape {
          dim {
            size: 3
          }
        }
        tensor_content: "\000\000\000\000\001\000\000\000\002\000\000\000"
      }
    }
  }
}
node {
  name: "u_net/bn1/moments/mean"
  op: "Mean"
  input: "u_net/conv1_2/Relu"
  input: "u_net/bn1/moments/mean/reduction_indices"
  attr {
    key: "T"
    value {
      type: DT_FLOAT
    }
  }
  attr {
    key: "Tidx"
    value {
      type: DT_INT32
    }
  }
  attr {
    key: "keep_dims"
    value {
      b: true
    }
  }
}
node {
  name: "u_net/bn1/moments/StopGradient"
  op: "StopGradient"
  input: "u_net/bn1/moments/mean"
  attr {
    key: "T"
    value {
      type: DT_FLOAT
    }
  }
}
node {
  name: "u_net/bn1/moments/SquaredDifference"
  op: "SquaredDifference"
  input: "u_net/conv1_2/Relu"
  input: "u_net/bn1/moments/StopGradient"
  attr {
    key: "T"
    value {
      type: DT_FLOAT
    }
  }
}
node {
  name: "u_net/bn1/moments/variance/reduction_indices"
  op: "Const"
  attr {
    key: "dtype"
    value {
      type: DT_INT32
    }
  }
  attr {
    key: "value"
    value {
      tensor {
        dtype: DT_INT32
        tensor_shape {
          dim {
            size: 3
          }
        }
        tensor_content: "\000\000\000\000\001\000\000\000\002\000\000\000"
      }
    }
  }
}
node {
  name: "u_net/bn1/moments/variance"
  op: "Mean"
  input: "u_net/bn1/moments/SquaredDifference"
  input: "u_net/bn1/moments/variance/reduction_indices"
  attr {
    key: "T"
    value {
      type: DT_FLOAT
    }
  }
  attr {
    key: "Tidx"
    value {
      type: DT_INT32
    }
  }
  attr {
    key: "keep_dims"
    value {
      b: true
    }
  }
}
node {
  name: "u_net/bn1/moments/Squeeze"
  op: "Squeeze"
  input: "u_net/bn1/moments/mean"
  attr {
    key: "T"
    value {
      type: DT_FLOAT
    }
  }
  attr {
    key: "squeeze_dims"
    value {
      list {
        i: 0
        i: 1
        i: 2
      }
    }
  }
}
node {
  name: "u_net/bn1/moments/Squeeze_1"
  op: "Squeeze"
  input: "u_net/bn1/moments/variance"
  attr {
    key: "T"
    value {
      type: DT_FLOAT
    }
  }
  attr {
    key: "squeeze_dims"
    value {
      list {
        i: 0
        i: 1
        i: 2
      }
    }
  }
}
node {
  name: "u_net/bn1/AssignMovingAvg/decay"
  op: "Const"
  attr {
    key: "_class"
    value {
      list {
        s: "loc:@u_net/bn1/moving_mean"
      }
    }
  }
  attr {
    key: "dtype"
    value {
      type: DT_FLOAT
    }
  }
  attr {
    key: "value"
    value {
      tensor {
        dtype: DT_FLOAT
        tensor_shape {
        }
        float_val: 0.10000000149011612
      }
    }
  }
}
node {
  name: "u_net/bn1/AssignMovingAvg/sub"
  op: "Sub"
  input: "u_net/bn1/moving_mean/read"
  input: "u_net/bn1/moments/Squeeze"
  attr {
    key: "T"
    value {
      type: DT_FLOAT
    }
  }
  attr {
    key: "_class"
    value {
      list {
        s: "loc:@u_net/bn1/moving_mean"
      }
    }
  }
}
node {
  name: "u_net/bn1/AssignMovingAvg/mul"
  op: "Mul"
  input: "u_net/bn1/AssignMovingAvg/sub"
  input: "u_net/bn1/AssignMovingAvg/decay"
  attr {
    key: "T"
    value {
      type: DT_FLOAT
    }
  }
  attr {
    key: "_class"
    value {
      list {
        s: "loc:@u_net/bn1/moving_mean"
      }
    }
  }
}
node {
  name: "u_net/bn1/AssignMovingAvg"
  op: "AssignSub"
  input: "u_net/bn1/moving_mean"
  input: "u_net/bn1/AssignMovingAvg/mul"
  attr {
    key: "T"
    value {
      type: DT_FLOAT
    }
  }
  attr {
    key: "_class"
    value {
      list {
        s: "loc:@u_net/bn1/moving_mean"
      }
    }
  }
  attr {
    key: "use_locking"
    value {
      b: false
    }
  }
}
node {
  name: "u_net/bn1/AssignMovingAvg_1/decay"
  op: "Const"
  attr {
    key: "_class"
    value {
      list {
        s: "loc:@u_net/bn1/moving_variance"
      }
    }
  }
  attr {
    key: "dtype"
    value {
      type: DT_FLOAT
    }
  }
  attr {
    key: "value"
    value {
      tensor {
        dtype: DT_FLOAT
        tensor_shape {
        }
        float_val: 0.10000000149011612
      }
    }
  }
}
node {
  name: "u_net/bn1/AssignMovingAvg_1/sub"
  op: "Sub"
  input: "u_net/bn1/moving_variance/read"
  input: "u_net/bn1/moments/Squeeze_1"
  attr {
    key: "T"
    value {
      type: DT_FLOAT
    }
  }
  attr {
    key: "_class"
    value {
      list {
        s: "loc:@u_net/bn1/moving_variance"
      }
    }
  }
}
node {
  name: "u_net/bn1/AssignMovingAvg_1/mul"
  op: "Mul"
  input: "u_net/bn1/AssignMovingAvg_1/sub"
  input: "u_net/bn1/AssignMovingAvg_1/decay"
  attr {
    key: "T"
    value {
      type: DT_FLOAT
    }
  }
  attr {
    key: "_class"
    value {
      list {
        s: "loc:@u_net/bn1/moving_variance"
      }
    }
  }
}
node {
  name: "u_net/bn1/AssignMovingAvg_1"
  op: "AssignSub"
  input: "u_net/bn1/moving_variance"
  input: "u_net/bn1/AssignMovingAvg_1/mul"
  attr {
    key: "T"
    value {
      type: DT_FLOAT
    }
  }
  attr {
    key: "_class"
    value {
      list {
        s: "loc:@u_net/bn1/moving_variance"
      }
    }
  }
  attr {
    key: "use_locking"
    value {
      b: false
    }
  }
}
node {
  name: "u_net/bn1/Identity"
  op: "Identity"
  input: "u_net/bn1/moments/Squeeze"
  input: "^u_net/bn1/AssignMovingAvg"
  input: "^u_net/bn1/AssignMovingAvg_1"
  attr {
    key: "T"
    value {
      type: DT_FLOAT
    }
  }
}
node {
  name: "u_net/bn1/Identity_1"
  op: "Identity"
  input: "u_net/bn1/moments/Squeeze_1"
  input: "^u_net/bn1/AssignMovingAvg"
  input: "^u_net/bn1/AssignMovingAvg_1"
  attr {
    key: "T"
    value {
      type: DT_FLOAT
    }
  }
}
node {
  name: "u_net/bn1/batchnorm/add/y"
  op: "Const"
  attr {
    key: "dtype"
    value {
      type: DT_FLOAT
    }
  }
  attr {
    key: "value"
    value {
      tensor {
        dtype: DT_FLOAT
        tensor_shape {
        }
        float_val: 9.999999747378752e-06
      }
    }
  }
}
node {
  name: "u_net/bn1/batchnorm/add"
  op: "Add"
  input: "u_net/bn1/Identity_1"
  input: "u_net/bn1/batchnorm/add/y"
  attr {
    key: "T"
    value {
      type: DT_FLOAT
    }
  }
}
node {
  name: "u_net/bn1/batchnorm/Rsqrt"
  op: "Rsqrt"
  input: "u_net/bn1/batchnorm/add"
  attr {
    key: "T"
    value {
      type: DT_FLOAT
    }
  }
}
node {
  name: "u_net/bn1/batchnorm/mul"
  op: "Mul"
  input: "u_net/bn1/batchnorm/Rsqrt"
  input: "u_net/bn1/gamma/read"
  attr {
    key: "T"
    value {
      type: DT_FLOAT
    }
  }
}
node {
  name: "u_net/bn1/batchnorm/mul_1"
  op: "Mul"
  input: "u_net/conv1_2/Relu"
  input: "u_net/bn1/batchnorm/mul"
  attr {
    key: "T"
    value {
      type: DT_FLOAT
    }
  }
}
node {
  name: "u_net/bn1/batchnorm/mul_2"
  op: "Mul"
  input: "u_net/bn1/Identity"
  input: "u_net/bn1/batchnorm/mul"
  attr {
    key: "T"
    value {
      type: DT_FLOAT
    }
  }
}
node {
  name: "u_net/bn1/batchnorm/sub"
  op: "Sub"
  input: "u_net/bn1/beta/read"
  input: "u_net/bn1/batchnorm/mul_2"
  attr {
    key: "T"
    value {
      type: DT_FLOAT
    }
  }
}
node {
  name: "u_net/bn1/batchnorm/add_1"
  op: "Add"
  input: "u_net/bn1/batchnorm/mul_1"
  input: "u_net/bn1/batchnorm/sub"
  attr {
    key: "T"
    value {
      type: DT_FLOAT
    }
  }
}
node {
  name: "u_net/bn1/Identity_2"
  op: "Identity"
  input: "u_net/bn1/batchnorm/add_1"
  attr {
    key: "T"
    value {
      type: DT_FLOAT
    }
  }
}
node {
  name: "u_net/pool1"
  op: "MaxPool"
  input: "u_net/bn1/Identity_2"
  attr {
    key: "T"
    value {
      type: DT_FLOAT
    }
  }
  attr {
    key: "data_format"
    value {
      s: "NHWC"
    }
  }
  attr {
    key: "ksize"
    value {
      list {
        i: 1
        i: 2
        i: 2
        i: 1
      }
    }
  }
  attr {
    key: "padding"
    value {
      s: "SAME"
    }
  }
  attr {
    key: "strides"
    value {
      list {
        i: 1
        i: 2
        i: 2
        i: 1
      }
    }
  }
}
node {
  name: "u_net/conv2_1/W_conv2d/Initializer/truncated_normal/shape"
  op: "Const"
  attr {
    key: "_class"
    value {
      list {
        s: "loc:@u_net/conv2_1/W_conv2d"
      }
    }
  }
  attr {
    key: "dtype"
    value {
      type: DT_INT32
    }
  }
  attr {
    key: "value"
    value {
      tensor {
        dtype: DT_INT32
        tensor_shape {
          dim {
            size: 4
          }
        }
        tensor_content: "\003\000\000\000\003\000\000\000@\000\000\000@\000\000\000"
      }
    }
  }
}
node {
  name: "u_net/conv2_1/W_conv2d/Initializer/truncated_normal/mean"
  op: "Const"
  attr {
    key: "_class"
    value {
      list {
        s: "loc:@u_net/conv2_1/W_conv2d"
      }
    }
  }
  attr {
    key: "dtype"
    value {
      type: DT_FLOAT
    }
  }
  attr {
    key: "value"
    value {
      tensor {
        dtype: DT_FLOAT
        tensor_shape {
        }
        float_val: 0.0
      }
    }
  }
}
node {
  name: "u_net/conv2_1/W_conv2d/Initializer/truncated_normal/stddev"
  op: "Const"
  attr {
    key: "_class"
    value {
      list {
        s: "loc:@u_net/conv2_1/W_conv2d"
      }
    }
  }
  attr {
    key: "dtype"
    value {
      type: DT_FLOAT
    }
  }
  attr {
    key: "value"
    value {
      tensor {
        dtype: DT_FLOAT
        tensor_shape {
        }
        float_val: 0.009999999776482582
      }
    }
  }
}
node {
  name: "u_net/conv2_1/W_conv2d/Initializer/truncated_normal/TruncatedNormal"
  op: "TruncatedNormal"
  input: "u_net/conv2_1/W_conv2d/Initializer/truncated_normal/shape"
  attr {
    key: "T"
    value {
      type: DT_INT32
    }
  }
  attr {
    key: "_class"
    value {
      list {
        s: "loc:@u_net/conv2_1/W_conv2d"
      }
    }
  }
  attr {
    key: "dtype"
    value {
      type: DT_FLOAT
    }
  }
  attr {
    key: "seed"
    value {
      i: 0
    }
  }
  attr {
    key: "seed2"
    value {
      i: 0
    }
  }
}
node {
  name: "u_net/conv2_1/W_conv2d/Initializer/truncated_normal/mul"
  op: "Mul"
  input: "u_net/conv2_1/W_conv2d/Initializer/truncated_normal/TruncatedNormal"
  input: "u_net/conv2_1/W_conv2d/Initializer/truncated_normal/stddev"
  attr {
    key: "T"
    value {
      type: DT_FLOAT
    }
  }
  attr {
    key: "_class"
    value {
      list {
        s: "loc:@u_net/conv2_1/W_conv2d"
      }
    }
  }
}
node {
  name: "u_net/conv2_1/W_conv2d/Initializer/truncated_normal"
  op: "Add"
  input: "u_net/conv2_1/W_conv2d/Initializer/truncated_normal/mul"
  input: "u_net/conv2_1/W_conv2d/Initializer/truncated_normal/mean"
  attr {
    key: "T"
    value {
      type: DT_FLOAT
    }
  }
  attr {
    key: "_class"
    value {
      list {
        s: "loc:@u_net/conv2_1/W_conv2d"
      }
    }
  }
}
node {
  name: "u_net/conv2_1/W_conv2d"
  op: "VariableV2"
  attr {
    key: "_class"
    value {
      list {
        s: "loc:@u_net/conv2_1/W_conv2d"
      }
    }
  }
  attr {
    key: "container"
    value {
      s: ""
    }
  }
  attr {
    key: "dtype"
    value {
      type: DT_FLOAT
    }
  }
  attr {
    key: "shape"
    value {
      shape {
        dim {
          size: 3
        }
        dim {
          size: 3
        }
        dim {
          size: 64
        }
        dim {
          size: 64
        }
      }
    }
  }
  attr {
    key: "shared_name"
    value {
      s: ""
    }
  }
}
node {
  name: "u_net/conv2_1/W_conv2d/Assign"
  op: "Assign"
  input: "u_net/conv2_1/W_conv2d"
  input: "u_net/conv2_1/W_conv2d/Initializer/truncated_normal"
  attr {
    key: "T"
    value {
      type: DT_FLOAT
    }
  }
  attr {
    key: "_class"
    value {
      list {
        s: "loc:@u_net/conv2_1/W_conv2d"
      }
    }
  }
  attr {
    key: "use_locking"
    value {
      b: true
    }
  }
  attr {
    key: "validate_shape"
    value {
      b: true
    }
  }
}
node {
  name: "u_net/conv2_1/W_conv2d/read"
  op: "Identity"
  input: "u_net/conv2_1/W_conv2d"
  attr {
    key: "T"
    value {
      type: DT_FLOAT
    }
  }
  attr {
    key: "_class"
    value {
      list {
        s: "loc:@u_net/conv2_1/W_conv2d"
      }
    }
  }
}
node {
  name: "u_net/conv2_1/summaries/Rank"
  op: "Const"
  attr {
    key: "dtype"
    value {
      type: DT_INT32
    }
  }
  attr {
    key: "value"
    value {
      tensor {
        dtype: DT_INT32
        tensor_shape {
        }
        int_val: 4
      }
    }
  }
}
node {
  name: "u_net/conv2_1/summaries/range/start"
  op: "Const"
  attr {
    key: "dtype"
    value {
      type: DT_INT32
    }
  }
  attr {
    key: "value"
    value {
      tensor {
        dtype: DT_INT32
        tensor_shape {
        }
        int_val: 0
      }
    }
  }
}
node {
  name: "u_net/conv2_1/summaries/range/delta"
  op: "Const"
  attr {
    key: "dtype"
    value {
      type: DT_INT32
    }
  }
  attr {
    key: "value"
    value {
      tensor {
        dtype: DT_INT32
        tensor_shape {
        }
        int_val: 1
      }
    }
  }
}
node {
  name: "u_net/conv2_1/summaries/range"
  op: "Range"
  input: "u_net/conv2_1/summaries/range/start"
  input: "u_net/conv2_1/summaries/Rank"
  input: "u_net/conv2_1/summaries/range/delta"
  attr {
    key: "Tidx"
    value {
      type: DT_INT32
    }
  }
}
node {
  name: "u_net/conv2_1/summaries/Mean"
  op: "Mean"
  input: "u_net/conv2_1/W_conv2d/read"
  input: "u_net/conv2_1/summaries/range"
  attr {
    key: "T"
    value {
      type: DT_FLOAT
    }
  }
  attr {
    key: "Tidx"
    value {
      type: DT_INT32
    }
  }
  attr {
    key: "keep_dims"
    value {
      b: false
    }
  }
}
node {
  name: "u_net/conv2_1/summaries/mean/Weights/tags"
  op: "Const"
  attr {
    key: "dtype"
    value {
      type: DT_STRING
    }
  }
  attr {
    key: "value"
    value {
      tensor {
        dtype: DT_STRING
        tensor_shape {
        }
        string_val: "u_net/conv2_1/summaries/mean/Weights"
      }
    }
  }
}
node {
  name: "u_net/conv2_1/summaries/mean/Weights"
  op: "ScalarSummary"
  input: "u_net/conv2_1/summaries/mean/Weights/tags"
  input: "u_net/conv2_1/summaries/Mean"
  attr {
    key: "T"
    value {
      type: DT_FLOAT
    }
  }
}
node {
  name: "u_net/conv2_1/summaries/stddev/sub"
  op: "Sub"
  input: "u_net/conv2_1/W_conv2d/read"
  input: "u_net/conv2_1/summaries/Mean"
  attr {
    key: "T"
    value {
      type: DT_FLOAT
    }
  }
}
node {
  name: "u_net/conv2_1/summaries/stddev/Square"
  op: "Square"
  input: "u_net/conv2_1/summaries/stddev/sub"
  attr {
    key: "T"
    value {
      type: DT_FLOAT
    }
  }
}
node {
  name: "u_net/conv2_1/summaries/stddev/Const"
  op: "Const"
  attr {
    key: "dtype"
    value {
      type: DT_INT32
    }
  }
  attr {
    key: "value"
    value {
      tensor {
        dtype: DT_INT32
        tensor_shape {
          dim {
            size: 4
          }
        }
        tensor_content: "\000\000\000\000\001\000\000\000\002\000\000\000\003\000\000\000"
      }
    }
  }
}
node {
  name: "u_net/conv2_1/summaries/stddev/Sum"
  op: "Sum"
  input: "u_net/conv2_1/summaries/stddev/Square"
  input: "u_net/conv2_1/summaries/stddev/Const"
  attr {
    key: "T"
    value {
      type: DT_FLOAT
    }
  }
  attr {
    key: "Tidx"
    value {
      type: DT_INT32
    }
  }
  attr {
    key: "keep_dims"
    value {
      b: false
    }
  }
}
node {
  name: "u_net/conv2_1/summaries/stddev/Sqrt"
  op: "Sqrt"
  input: "u_net/conv2_1/summaries/stddev/Sum"
  attr {
    key: "T"
    value {
      type: DT_FLOAT
    }
  }
}
node {
  name: "u_net/conv2_1/summaries/sttdev/Weights/tags"
  op: "Const"
  attr {
    key: "dtype"
    value {
      type: DT_STRING
    }
  }
  attr {
    key: "value"
    value {
      tensor {
        dtype: DT_STRING
        tensor_shape {
        }
        string_val: "u_net/conv2_1/summaries/sttdev/Weights"
      }
    }
  }
}
node {
  name: "u_net/conv2_1/summaries/sttdev/Weights"
  op: "ScalarSummary"
  input: "u_net/conv2_1/summaries/sttdev/Weights/tags"
  input: "u_net/conv2_1/summaries/stddev/Sqrt"
  attr {
    key: "T"
    value {
      type: DT_FLOAT
    }
  }
}
node {
  name: "u_net/conv2_1/summaries/Rank_1"
  op: "Const"
  attr {
    key: "dtype"
    value {
      type: DT_INT32
    }
  }
  attr {
    key: "value"
    value {
      tensor {
        dtype: DT_INT32
        tensor_shape {
        }
        int_val: 4
      }
    }
  }
}
node {
  name: "u_net/conv2_1/summaries/range_1/start"
  op: "Const"
  attr {
    key: "dtype"
    value {
      type: DT_INT32
    }
  }
  attr {
    key: "value"
    value {
      tensor {
        dtype: DT_INT32
        tensor_shape {
        }
        int_val: 0
      }
    }
  }
}
node {
  name: "u_net/conv2_1/summaries/range_1/delta"
  op: "Const"
  attr {
    key: "dtype"
    value {
      type: DT_INT32
    }
  }
  attr {
    key: "value"
    value {
      tensor {
        dtype: DT_INT32
        tensor_shape {
        }
        int_val: 1
      }
    }
  }
}
node {
  name: "u_net/conv2_1/summaries/range_1"
  op: "Range"
  input: "u_net/conv2_1/summaries/range_1/start"
  input: "u_net/conv2_1/summaries/Rank_1"
  input: "u_net/conv2_1/summaries/range_1/delta"
  attr {
    key: "Tidx"
    value {
      type: DT_INT32
    }
  }
}
node {
  name: "u_net/conv2_1/summaries/Max"
  op: "Max"
  input: "u_net/conv2_1/W_conv2d/read"
  input: "u_net/conv2_1/summaries/range_1"
  attr {
    key: "T"
    value {
      type: DT_FLOAT
    }
  }
  attr {
    key: "Tidx"
    value {
      type: DT_INT32
    }
  }
  attr {
    key: "keep_dims"
    value {
      b: false
    }
  }
}
node {
  name: "u_net/conv2_1/summaries/max/Weights/tags"
  op: "Const"
  attr {
    key: "dtype"
    value {
      type: DT_STRING
    }
  }
  attr {
    key: "value"
    value {
      tensor {
        dtype: DT_STRING
        tensor_shape {
        }
        string_val: "u_net/conv2_1/summaries/max/Weights"
      }
    }
  }
}
node {
  name: "u_net/conv2_1/summaries/max/Weights"
  op: "ScalarSummary"
  input: "u_net/conv2_1/summaries/max/Weights/tags"
  input: "u_net/conv2_1/summaries/Max"
  attr {
    key: "T"
    value {
      type: DT_FLOAT
    }
  }
}
node {
  name: "u_net/conv2_1/summaries/Rank_2"
  op: "Const"
  attr {
    key: "dtype"
    value {
      type: DT_INT32
    }
  }
  attr {
    key: "value"
    value {
      tensor {
        dtype: DT_INT32
        tensor_shape {
        }
        int_val: 4
      }
    }
  }
}
node {
  name: "u_net/conv2_1/summaries/range_2/start"
  op: "Const"
  attr {
    key: "dtype"
    value {
      type: DT_INT32
    }
  }
  attr {
    key: "value"
    value {
      tensor {
        dtype: DT_INT32
        tensor_shape {
        }
        int_val: 0
      }
    }
  }
}
node {
  name: "u_net/conv2_1/summaries/range_2/delta"
  op: "Const"
  attr {
    key: "dtype"
    value {
      type: DT_INT32
    }
  }
  attr {
    key: "value"
    value {
      tensor {
        dtype: DT_INT32
        tensor_shape {
        }
        int_val: 1
      }
    }
  }
}
node {
  name: "u_net/conv2_1/summaries/range_2"
  op: "Range"
  input: "u_net/conv2_1/summaries/range_2/start"
  input: "u_net/conv2_1/summaries/Rank_2"
  input: "u_net/conv2_1/summaries/range_2/delta"
  attr {
    key: "Tidx"
    value {
      type: DT_INT32
    }
  }
}
node {
  name: "u_net/conv2_1/summaries/Min"
  op: "Min"
  input: "u_net/conv2_1/W_conv2d/read"
  input: "u_net/conv2_1/summaries/range_2"
  attr {
    key: "T"
    value {
      type: DT_FLOAT
    }
  }
  attr {
    key: "Tidx"
    value {
      type: DT_INT32
    }
  }
  attr {
    key: "keep_dims"
    value {
      b: false
    }
  }
}
node {
  name: "u_net/conv2_1/summaries/min/Weights/tags"
  op: "Const"
  attr {
    key: "dtype"
    value {
      type: DT_STRING
    }
  }
  attr {
    key: "value"
    value {
      tensor {
        dtype: DT_STRING
        tensor_shape {
        }
        string_val: "u_net/conv2_1/summaries/min/Weights"
      }
    }
  }
}
node {
  name: "u_net/conv2_1/summaries/min/Weights"
  op: "ScalarSummary"
  input: "u_net/conv2_1/summaries/min/Weights/tags"
  input: "u_net/conv2_1/summaries/Min"
  attr {
    key: "T"
    value {
      type: DT_FLOAT
    }
  }
}
node {
  name: "u_net/conv2_1/b_conv2d/Initializer/Const"
  op: "Const"
  attr {
    key: "_class"
    value {
      list {
        s: "loc:@u_net/conv2_1/b_conv2d"
      }
    }
  }
  attr {
    key: "dtype"
    value {
      type: DT_FLOAT
    }
  }
  attr {
    key: "value"
    value {
      tensor {
        dtype: DT_FLOAT
        tensor_shape {
          dim {
            size: 64
          }
        }
        float_val: 0.0
      }
    }
  }
}
node {
  name: "u_net/conv2_1/b_conv2d"
  op: "VariableV2"
  attr {
    key: "_class"
    value {
      list {
        s: "loc:@u_net/conv2_1/b_conv2d"
      }
    }
  }
  attr {
    key: "container"
    value {
      s: ""
    }
  }
  attr {
    key: "dtype"
    value {
      type: DT_FLOAT
    }
  }
  attr {
    key: "shape"
    value {
      shape {
        dim {
          size: 64
        }
      }
    }
  }
  attr {
    key: "shared_name"
    value {
      s: ""
    }
  }
}
node {
  name: "u_net/conv2_1/b_conv2d/Assign"
  op: "Assign"
  input: "u_net/conv2_1/b_conv2d"
  input: "u_net/conv2_1/b_conv2d/Initializer/Const"
  attr {
    key: "T"
    value {
      type: DT_FLOAT
    }
  }
  attr {
    key: "_class"
    value {
      list {
        s: "loc:@u_net/conv2_1/b_conv2d"
      }
    }
  }
  attr {
    key: "use_locking"
    value {
      b: true
    }
  }
  attr {
    key: "validate_shape"
    value {
      b: true
    }
  }
}
node {
  name: "u_net/conv2_1/b_conv2d/read"
  op: "Identity"
  input: "u_net/conv2_1/b_conv2d"
  attr {
    key: "T"
    value {
      type: DT_FLOAT
    }
  }
  attr {
    key: "_class"
    value {
      list {
        s: "loc:@u_net/conv2_1/b_conv2d"
      }
    }
  }
}
node {
  name: "u_net/conv2_1/summaries_1/Rank"
  op: "Const"
  attr {
    key: "dtype"
    value {
      type: DT_INT32
    }
  }
  attr {
    key: "value"
    value {
      tensor {
        dtype: DT_INT32
        tensor_shape {
        }
        int_val: 1
      }
    }
  }
}
node {
  name: "u_net/conv2_1/summaries_1/range/start"
  op: "Const"
  attr {
    key: "dtype"
    value {
      type: DT_INT32
    }
  }
  attr {
    key: "value"
    value {
      tensor {
        dtype: DT_INT32
        tensor_shape {
        }
        int_val: 0
      }
    }
  }
}
node {
  name: "u_net/conv2_1/summaries_1/range/delta"
  op: "Const"
  attr {
    key: "dtype"
    value {
      type: DT_INT32
    }
  }
  attr {
    key: "value"
    value {
      tensor {
        dtype: DT_INT32
        tensor_shape {
        }
        int_val: 1
      }
    }
  }
}
node {
  name: "u_net/conv2_1/summaries_1/range"
  op: "Range"
  input: "u_net/conv2_1/summaries_1/range/start"
  input: "u_net/conv2_1/summaries_1/Rank"
  input: "u_net/conv2_1/summaries_1/range/delta"
  attr {
    key: "Tidx"
    value {
      type: DT_INT32
    }
  }
}
node {
  name: "u_net/conv2_1/summaries_1/Mean"
  op: "Mean"
  input: "u_net/conv2_1/b_conv2d/read"
  input: "u_net/conv2_1/summaries_1/range"
  attr {
    key: "T"
    value {
      type: DT_FLOAT
    }
  }
  attr {
    key: "Tidx"
    value {
      type: DT_INT32
    }
  }
  attr {
    key: "keep_dims"
    value {
      b: false
    }
  }
}
node {
  name: "u_net/conv2_1/summaries_1/mean/Biases/tags"
  op: "Const"
  attr {
    key: "dtype"
    value {
      type: DT_STRING
    }
  }
  attr {
    key: "value"
    value {
      tensor {
        dtype: DT_STRING
        tensor_shape {
        }
        string_val: "u_net/conv2_1/summaries_1/mean/Biases"
      }
    }
  }
}
node {
  name: "u_net/conv2_1/summaries_1/mean/Biases"
  op: "ScalarSummary"
  input: "u_net/conv2_1/summaries_1/mean/Biases/tags"
  input: "u_net/conv2_1/summaries_1/Mean"
  attr {
    key: "T"
    value {
      type: DT_FLOAT
    }
  }
}
node {
  name: "u_net/conv2_1/summaries_1/stddev/sub"
  op: "Sub"
  input: "u_net/conv2_1/b_conv2d/read"
  input: "u_net/conv2_1/summaries_1/Mean"
  attr {
    key: "T"
    value {
      type: DT_FLOAT
    }
  }
}
node {
  name: "u_net/conv2_1/summaries_1/stddev/Square"
  op: "Square"
  input: "u_net/conv2_1/summaries_1/stddev/sub"
  attr {
    key: "T"
    value {
      type: DT_FLOAT
    }
  }
}
node {
  name: "u_net/conv2_1/summaries_1/stddev/Const"
  op: "Const"
  attr {
    key: "dtype"
    value {
      type: DT_INT32
    }
  }
  attr {
    key: "value"
    value {
      tensor {
        dtype: DT_INT32
        tensor_shape {
          dim {
            size: 1
          }
        }
        int_val: 0
      }
    }
  }
}
node {
  name: "u_net/conv2_1/summaries_1/stddev/Sum"
  op: "Sum"
  input: "u_net/conv2_1/summaries_1/stddev/Square"
  input: "u_net/conv2_1/summaries_1/stddev/Const"
  attr {
    key: "T"
    value {
      type: DT_FLOAT
    }
  }
  attr {
    key: "Tidx"
    value {
      type: DT_INT32
    }
  }
  attr {
    key: "keep_dims"
    value {
      b: false
    }
  }
}
node {
  name: "u_net/conv2_1/summaries_1/stddev/Sqrt"
  op: "Sqrt"
  input: "u_net/conv2_1/summaries_1/stddev/Sum"
  attr {
    key: "T"
    value {
      type: DT_FLOAT
    }
  }
}
node {
  name: "u_net/conv2_1/summaries_1/sttdev/Biases/tags"
  op: "Const"
  attr {
    key: "dtype"
    value {
      type: DT_STRING
    }
  }
  attr {
    key: "value"
    value {
      tensor {
        dtype: DT_STRING
        tensor_shape {
        }
        string_val: "u_net/conv2_1/summaries_1/sttdev/Biases"
      }
    }
  }
}
node {
  name: "u_net/conv2_1/summaries_1/sttdev/Biases"
  op: "ScalarSummary"
  input: "u_net/conv2_1/summaries_1/sttdev/Biases/tags"
  input: "u_net/conv2_1/summaries_1/stddev/Sqrt"
  attr {
    key: "T"
    value {
      type: DT_FLOAT
    }
  }
}
node {
  name: "u_net/conv2_1/summaries_1/Rank_1"
  op: "Const"
  attr {
    key: "dtype"
    value {
      type: DT_INT32
    }
  }
  attr {
    key: "value"
    value {
      tensor {
        dtype: DT_INT32
        tensor_shape {
        }
        int_val: 1
      }
    }
  }
}
node {
  name: "u_net/conv2_1/summaries_1/range_1/start"
  op: "Const"
  attr {
    key: "dtype"
    value {
      type: DT_INT32
    }
  }
  attr {
    key: "value"
    value {
      tensor {
        dtype: DT_INT32
        tensor_shape {
        }
        int_val: 0
      }
    }
  }
}
node {
  name: "u_net/conv2_1/summaries_1/range_1/delta"
  op: "Const"
  attr {
    key: "dtype"
    value {
      type: DT_INT32
    }
  }
  attr {
    key: "value"
    value {
      tensor {
        dtype: DT_INT32
        tensor_shape {
        }
        int_val: 1
      }
    }
  }
}
node {
  name: "u_net/conv2_1/summaries_1/range_1"
  op: "Range"
  input: "u_net/conv2_1/summaries_1/range_1/start"
  input: "u_net/conv2_1/summaries_1/Rank_1"
  input: "u_net/conv2_1/summaries_1/range_1/delta"
  attr {
    key: "Tidx"
    value {
      type: DT_INT32
    }
  }
}
node {
  name: "u_net/conv2_1/summaries_1/Max"
  op: "Max"
  input: "u_net/conv2_1/b_conv2d/read"
  input: "u_net/conv2_1/summaries_1/range_1"
  attr {
    key: "T"
    value {
      type: DT_FLOAT
    }
  }
  attr {
    key: "Tidx"
    value {
      type: DT_INT32
    }
  }
  attr {
    key: "keep_dims"
    value {
      b: false
    }
  }
}
node {
  name: "u_net/conv2_1/summaries_1/max/Biases/tags"
  op: "Const"
  attr {
    key: "dtype"
    value {
      type: DT_STRING
    }
  }
  attr {
    key: "value"
    value {
      tensor {
        dtype: DT_STRING
        tensor_shape {
        }
        string_val: "u_net/conv2_1/summaries_1/max/Biases"
      }
    }
  }
}
node {
  name: "u_net/conv2_1/summaries_1/max/Biases"
  op: "ScalarSummary"
  input: "u_net/conv2_1/summaries_1/max/Biases/tags"
  input: "u_net/conv2_1/summaries_1/Max"
  attr {
    key: "T"
    value {
      type: DT_FLOAT
    }
  }
}
node {
  name: "u_net/conv2_1/summaries_1/Rank_2"
  op: "Const"
  attr {
    key: "dtype"
    value {
      type: DT_INT32
    }
  }
  attr {
    key: "value"
    value {
      tensor {
        dtype: DT_INT32
        tensor_shape {
        }
        int_val: 1
      }
    }
  }
}
node {
  name: "u_net/conv2_1/summaries_1/range_2/start"
  op: "Const"
  attr {
    key: "dtype"
    value {
      type: DT_INT32
    }
  }
  attr {
    key: "value"
    value {
      tensor {
        dtype: DT_INT32
        tensor_shape {
        }
        int_val: 0
      }
    }
  }
}
node {
  name: "u_net/conv2_1/summaries_1/range_2/delta"
  op: "Const"
  attr {
    key: "dtype"
    value {
      type: DT_INT32
    }
  }
  attr {
    key: "value"
    value {
      tensor {
        dtype: DT_INT32
        tensor_shape {
        }
        int_val: 1
      }
    }
  }
}
node {
  name: "u_net/conv2_1/summaries_1/range_2"
  op: "Range"
  input: "u_net/conv2_1/summaries_1/range_2/start"
  input: "u_net/conv2_1/summaries_1/Rank_2"
  input: "u_net/conv2_1/summaries_1/range_2/delta"
  attr {
    key: "Tidx"
    value {
      type: DT_INT32
    }
  }
}
node {
  name: "u_net/conv2_1/summaries_1/Min"
  op: "Min"
  input: "u_net/conv2_1/b_conv2d/read"
  input: "u_net/conv2_1/summaries_1/range_2"
  attr {
    key: "T"
    value {
      type: DT_FLOAT
    }
  }
  attr {
    key: "Tidx"
    value {
      type: DT_INT32
    }
  }
  attr {
    key: "keep_dims"
    value {
      b: false
    }
  }
}
node {
  name: "u_net/conv2_1/summaries_1/min/Biases/tags"
  op: "Const"
  attr {
    key: "dtype"
    value {
      type: DT_STRING
    }
  }
  attr {
    key: "value"
    value {
      tensor {
        dtype: DT_STRING
        tensor_shape {
        }
        string_val: "u_net/conv2_1/summaries_1/min/Biases"
      }
    }
  }
}
node {
  name: "u_net/conv2_1/summaries_1/min/Biases"
  op: "ScalarSummary"
  input: "u_net/conv2_1/summaries_1/min/Biases/tags"
  input: "u_net/conv2_1/summaries_1/Min"
  attr {
    key: "T"
    value {
      type: DT_FLOAT
    }
  }
}
node {
  name: "u_net/conv2_1/Conv2D"
  op: "Conv2D"
  input: "u_net/pool1"
  input: "u_net/conv2_1/W_conv2d/read"
  attr {
    key: "T"
    value {
      type: DT_FLOAT
    }
  }
  attr {
    key: "data_format"
    value {
      s: "NHWC"
    }
  }
  attr {
    key: "dilations"
    value {
      list {
        i: 1
        i: 1
        i: 1
        i: 1
      }
    }
  }
  attr {
    key: "padding"
    value {
      s: "SAME"
    }
  }
  attr {
    key: "strides"
    value {
      list {
        i: 1
        i: 1
        i: 1
        i: 1
      }
    }
  }
  attr {
    key: "use_cudnn_on_gpu"
    value {
      b: true
    }
  }
}
node {
  name: "u_net/conv2_1/add"
  op: "Add"
  input: "u_net/conv2_1/Conv2D"
  input: "u_net/conv2_1/b_conv2d/read"
  attr {
    key: "T"
    value {
      type: DT_FLOAT
    }
  }
}
node {
  name: "u_net/conv2_1/Relu"
  op: "Relu"
  input: "u_net/conv2_1/add"
  attr {
    key: "T"
    value {
      type: DT_FLOAT
    }
  }
}
node {
  name: "u_net/conv2_2/W_conv2d/Initializer/truncated_normal/shape"
  op: "Const"
  attr {
    key: "_class"
    value {
      list {
        s: "loc:@u_net/conv2_2/W_conv2d"
      }
    }
  }
  attr {
    key: "dtype"
    value {
      type: DT_INT32
    }
  }
  attr {
    key: "value"
    value {
      tensor {
        dtype: DT_INT32
        tensor_shape {
          dim {
            size: 4
          }
        }
        tensor_content: "\003\000\000\000\003\000\000\000@\000\000\000@\000\000\000"
      }
    }
  }
}
node {
  name: "u_net/conv2_2/W_conv2d/Initializer/truncated_normal/mean"
  op: "Const"
  attr {
    key: "_class"
    value {
      list {
        s: "loc:@u_net/conv2_2/W_conv2d"
      }
    }
  }
  attr {
    key: "dtype"
    value {
      type: DT_FLOAT
    }
  }
  attr {
    key: "value"
    value {
      tensor {
        dtype: DT_FLOAT
        tensor_shape {
        }
        float_val: 0.0
      }
    }
  }
}
node {
  name: "u_net/conv2_2/W_conv2d/Initializer/truncated_normal/stddev"
  op: "Const"
  attr {
    key: "_class"
    value {
      list {
        s: "loc:@u_net/conv2_2/W_conv2d"
      }
    }
  }
  attr {
    key: "dtype"
    value {
      type: DT_FLOAT
    }
  }
  attr {
    key: "value"
    value {
      tensor {
        dtype: DT_FLOAT
        tensor_shape {
        }
        float_val: 0.009999999776482582
      }
    }
  }
}
node {
  name: "u_net/conv2_2/W_conv2d/Initializer/truncated_normal/TruncatedNormal"
  op: "TruncatedNormal"
  input: "u_net/conv2_2/W_conv2d/Initializer/truncated_normal/shape"
  attr {
    key: "T"
    value {
      type: DT_INT32
    }
  }
  attr {
    key: "_class"
    value {
      list {
        s: "loc:@u_net/conv2_2/W_conv2d"
      }
    }
  }
  attr {
    key: "dtype"
    value {
      type: DT_FLOAT
    }
  }
  attr {
    key: "seed"
    value {
      i: 0
    }
  }
  attr {
    key: "seed2"
    value {
      i: 0
    }
  }
}
node {
  name: "u_net/conv2_2/W_conv2d/Initializer/truncated_normal/mul"
  op: "Mul"
  input: "u_net/conv2_2/W_conv2d/Initializer/truncated_normal/TruncatedNormal"
  input: "u_net/conv2_2/W_conv2d/Initializer/truncated_normal/stddev"
  attr {
    key: "T"
    value {
      type: DT_FLOAT
    }
  }
  attr {
    key: "_class"
    value {
      list {
        s: "loc:@u_net/conv2_2/W_conv2d"
      }
    }
  }
}
node {
  name: "u_net/conv2_2/W_conv2d/Initializer/truncated_normal"
  op: "Add"
  input: "u_net/conv2_2/W_conv2d/Initializer/truncated_normal/mul"
  input: "u_net/conv2_2/W_conv2d/Initializer/truncated_normal/mean"
  attr {
    key: "T"
    value {
      type: DT_FLOAT
    }
  }
  attr {
    key: "_class"
    value {
      list {
        s: "loc:@u_net/conv2_2/W_conv2d"
      }
    }
  }
}
node {
  name: "u_net/conv2_2/W_conv2d"
  op: "VariableV2"
  attr {
    key: "_class"
    value {
      list {
        s: "loc:@u_net/conv2_2/W_conv2d"
      }
    }
  }
  attr {
    key: "container"
    value {
      s: ""
    }
  }
  attr {
    key: "dtype"
    value {
      type: DT_FLOAT
    }
  }
  attr {
    key: "shape"
    value {
      shape {
        dim {
          size: 3
        }
        dim {
          size: 3
        }
        dim {
          size: 64
        }
        dim {
          size: 64
        }
      }
    }
  }
  attr {
    key: "shared_name"
    value {
      s: ""
    }
  }
}
node {
  name: "u_net/conv2_2/W_conv2d/Assign"
  op: "Assign"
  input: "u_net/conv2_2/W_conv2d"
  input: "u_net/conv2_2/W_conv2d/Initializer/truncated_normal"
  attr {
    key: "T"
    value {
      type: DT_FLOAT
    }
  }
  attr {
    key: "_class"
    value {
      list {
        s: "loc:@u_net/conv2_2/W_conv2d"
      }
    }
  }
  attr {
    key: "use_locking"
    value {
      b: true
    }
  }
  attr {
    key: "validate_shape"
    value {
      b: true
    }
  }
}
node {
  name: "u_net/conv2_2/W_conv2d/read"
  op: "Identity"
  input: "u_net/conv2_2/W_conv2d"
  attr {
    key: "T"
    value {
      type: DT_FLOAT
    }
  }
  attr {
    key: "_class"
    value {
      list {
        s: "loc:@u_net/conv2_2/W_conv2d"
      }
    }
  }
}
node {
  name: "u_net/conv2_2/summaries/Rank"
  op: "Const"
  attr {
    key: "dtype"
    value {
      type: DT_INT32
    }
  }
  attr {
    key: "value"
    value {
      tensor {
        dtype: DT_INT32
        tensor_shape {
        }
        int_val: 4
      }
    }
  }
}
node {
  name: "u_net/conv2_2/summaries/range/start"
  op: "Const"
  attr {
    key: "dtype"
    value {
      type: DT_INT32
    }
  }
  attr {
    key: "value"
    value {
      tensor {
        dtype: DT_INT32
        tensor_shape {
        }
        int_val: 0
      }
    }
  }
}
node {
  name: "u_net/conv2_2/summaries/range/delta"
  op: "Const"
  attr {
    key: "dtype"
    value {
      type: DT_INT32
    }
  }
  attr {
    key: "value"
    value {
      tensor {
        dtype: DT_INT32
        tensor_shape {
        }
        int_val: 1
      }
    }
  }
}
node {
  name: "u_net/conv2_2/summaries/range"
  op: "Range"
  input: "u_net/conv2_2/summaries/range/start"
  input: "u_net/conv2_2/summaries/Rank"
  input: "u_net/conv2_2/summaries/range/delta"
  attr {
    key: "Tidx"
    value {
      type: DT_INT32
    }
  }
}
node {
  name: "u_net/conv2_2/summaries/Mean"
  op: "Mean"
  input: "u_net/conv2_2/W_conv2d/read"
  input: "u_net/conv2_2/summaries/range"
  attr {
    key: "T"
    value {
      type: DT_FLOAT
    }
  }
  attr {
    key: "Tidx"
    value {
      type: DT_INT32
    }
  }
  attr {
    key: "keep_dims"
    value {
      b: false
    }
  }
}
node {
  name: "u_net/conv2_2/summaries/mean/Weights/tags"
  op: "Const"
  attr {
    key: "dtype"
    value {
      type: DT_STRING
    }
  }
  attr {
    key: "value"
    value {
      tensor {
        dtype: DT_STRING
        tensor_shape {
        }
        string_val: "u_net/conv2_2/summaries/mean/Weights"
      }
    }
  }
}
node {
  name: "u_net/conv2_2/summaries/mean/Weights"
  op: "ScalarSummary"
  input: "u_net/conv2_2/summaries/mean/Weights/tags"
  input: "u_net/conv2_2/summaries/Mean"
  attr {
    key: "T"
    value {
      type: DT_FLOAT
    }
  }
}
node {
  name: "u_net/conv2_2/summaries/stddev/sub"
  op: "Sub"
  input: "u_net/conv2_2/W_conv2d/read"
  input: "u_net/conv2_2/summaries/Mean"
  attr {
    key: "T"
    value {
      type: DT_FLOAT
    }
  }
}
node {
  name: "u_net/conv2_2/summaries/stddev/Square"
  op: "Square"
  input: "u_net/conv2_2/summaries/stddev/sub"
  attr {
    key: "T"
    value {
      type: DT_FLOAT
    }
  }
}
node {
  name: "u_net/conv2_2/summaries/stddev/Const"
  op: "Const"
  attr {
    key: "dtype"
    value {
      type: DT_INT32
    }
  }
  attr {
    key: "value"
    value {
      tensor {
        dtype: DT_INT32
        tensor_shape {
          dim {
            size: 4
          }
        }
        tensor_content: "\000\000\000\000\001\000\000\000\002\000\000\000\003\000\000\000"
      }
    }
  }
}
node {
  name: "u_net/conv2_2/summaries/stddev/Sum"
  op: "Sum"
  input: "u_net/conv2_2/summaries/stddev/Square"
  input: "u_net/conv2_2/summaries/stddev/Const"
  attr {
    key: "T"
    value {
      type: DT_FLOAT
    }
  }
  attr {
    key: "Tidx"
    value {
      type: DT_INT32
    }
  }
  attr {
    key: "keep_dims"
    value {
      b: false
    }
  }
}
node {
  name: "u_net/conv2_2/summaries/stddev/Sqrt"
  op: "Sqrt"
  input: "u_net/conv2_2/summaries/stddev/Sum"
  attr {
    key: "T"
    value {
      type: DT_FLOAT
    }
  }
}
node {
  name: "u_net/conv2_2/summaries/sttdev/Weights/tags"
  op: "Const"
  attr {
    key: "dtype"
    value {
      type: DT_STRING
    }
  }
  attr {
    key: "value"
    value {
      tensor {
        dtype: DT_STRING
        tensor_shape {
        }
        string_val: "u_net/conv2_2/summaries/sttdev/Weights"
      }
    }
  }
}
node {
  name: "u_net/conv2_2/summaries/sttdev/Weights"
  op: "ScalarSummary"
  input: "u_net/conv2_2/summaries/sttdev/Weights/tags"
  input: "u_net/conv2_2/summaries/stddev/Sqrt"
  attr {
    key: "T"
    value {
      type: DT_FLOAT
    }
  }
}
node {
  name: "u_net/conv2_2/summaries/Rank_1"
  op: "Const"
  attr {
    key: "dtype"
    value {
      type: DT_INT32
    }
  }
  attr {
    key: "value"
    value {
      tensor {
        dtype: DT_INT32
        tensor_shape {
        }
        int_val: 4
      }
    }
  }
}
node {
  name: "u_net/conv2_2/summaries/range_1/start"
  op: "Const"
  attr {
    key: "dtype"
    value {
      type: DT_INT32
    }
  }
  attr {
    key: "value"
    value {
      tensor {
        dtype: DT_INT32
        tensor_shape {
        }
        int_val: 0
      }
    }
  }
}
node {
  name: "u_net/conv2_2/summaries/range_1/delta"
  op: "Const"
  attr {
    key: "dtype"
    value {
      type: DT_INT32
    }
  }
  attr {
    key: "value"
    value {
      tensor {
        dtype: DT_INT32
        tensor_shape {
        }
        int_val: 1
      }
    }
  }
}
node {
  name: "u_net/conv2_2/summaries/range_1"
  op: "Range"
  input: "u_net/conv2_2/summaries/range_1/start"
  input: "u_net/conv2_2/summaries/Rank_1"
  input: "u_net/conv2_2/summaries/range_1/delta"
  attr {
    key: "Tidx"
    value {
      type: DT_INT32
    }
  }
}
node {
  name: "u_net/conv2_2/summaries/Max"
  op: "Max"
  input: "u_net/conv2_2/W_conv2d/read"
  input: "u_net/conv2_2/summaries/range_1"
  attr {
    key: "T"
    value {
      type: DT_FLOAT
    }
  }
  attr {
    key: "Tidx"
    value {
      type: DT_INT32
    }
  }
  attr {
    key: "keep_dims"
    value {
      b: false
    }
  }
}
node {
  name: "u_net/conv2_2/summaries/max/Weights/tags"
  op: "Const"
  attr {
    key: "dtype"
    value {
      type: DT_STRING
    }
  }
  attr {
    key: "value"
    value {
      tensor {
        dtype: DT_STRING
        tensor_shape {
        }
        string_val: "u_net/conv2_2/summaries/max/Weights"
      }
    }
  }
}
node {
  name: "u_net/conv2_2/summaries/max/Weights"
  op: "ScalarSummary"
  input: "u_net/conv2_2/summaries/max/Weights/tags"
  input: "u_net/conv2_2/summaries/Max"
  attr {
    key: "T"
    value {
      type: DT_FLOAT
    }
  }
}
node {
  name: "u_net/conv2_2/summaries/Rank_2"
  op: "Const"
  attr {
    key: "dtype"
    value {
      type: DT_INT32
    }
  }
  attr {
    key: "value"
    value {
      tensor {
        dtype: DT_INT32
        tensor_shape {
        }
        int_val: 4
      }
    }
  }
}
node {
  name: "u_net/conv2_2/summaries/range_2/start"
  op: "Const"
  attr {
    key: "dtype"
    value {
      type: DT_INT32
    }
  }
  attr {
    key: "value"
    value {
      tensor {
        dtype: DT_INT32
        tensor_shape {
        }
        int_val: 0
      }
    }
  }
}
node {
  name: "u_net/conv2_2/summaries/range_2/delta"
  op: "Const"
  attr {
    key: "dtype"
    value {
      type: DT_INT32
    }
  }
  attr {
    key: "value"
    value {
      tensor {
        dtype: DT_INT32
        tensor_shape {
        }
        int_val: 1
      }
    }
  }
}
node {
  name: "u_net/conv2_2/summaries/range_2"
  op: "Range"
  input: "u_net/conv2_2/summaries/range_2/start"
  input: "u_net/conv2_2/summaries/Rank_2"
  input: "u_net/conv2_2/summaries/range_2/delta"
  attr {
    key: "Tidx"
    value {
      type: DT_INT32
    }
  }
}
node {
  name: "u_net/conv2_2/summaries/Min"
  op: "Min"
  input: "u_net/conv2_2/W_conv2d/read"
  input: "u_net/conv2_2/summaries/range_2"
  attr {
    key: "T"
    value {
      type: DT_FLOAT
    }
  }
  attr {
    key: "Tidx"
    value {
      type: DT_INT32
    }
  }
  attr {
    key: "keep_dims"
    value {
      b: false
    }
  }
}
node {
  name: "u_net/conv2_2/summaries/min/Weights/tags"
  op: "Const"
  attr {
    key: "dtype"
    value {
      type: DT_STRING
    }
  }
  attr {
    key: "value"
    value {
      tensor {
        dtype: DT_STRING
        tensor_shape {
        }
        string_val: "u_net/conv2_2/summaries/min/Weights"
      }
    }
  }
}
node {
  name: "u_net/conv2_2/summaries/min/Weights"
  op: "ScalarSummary"
  input: "u_net/conv2_2/summaries/min/Weights/tags"
  input: "u_net/conv2_2/summaries/Min"
  attr {
    key: "T"
    value {
      type: DT_FLOAT
    }
  }
}
node {
  name: "u_net/conv2_2/b_conv2d/Initializer/Const"
  op: "Const"
  attr {
    key: "_class"
    value {
      list {
        s: "loc:@u_net/conv2_2/b_conv2d"
      }
    }
  }
  attr {
    key: "dtype"
    value {
      type: DT_FLOAT
    }
  }
  attr {
    key: "value"
    value {
      tensor {
        dtype: DT_FLOAT
        tensor_shape {
          dim {
            size: 64
          }
        }
        float_val: 0.0
      }
    }
  }
}
node {
  name: "u_net/conv2_2/b_conv2d"
  op: "VariableV2"
  attr {
    key: "_class"
    value {
      list {
        s: "loc:@u_net/conv2_2/b_conv2d"
      }
    }
  }
  attr {
    key: "container"
    value {
      s: ""
    }
  }
  attr {
    key: "dtype"
    value {
      type: DT_FLOAT
    }
  }
  attr {
    key: "shape"
    value {
      shape {
        dim {
          size: 64
        }
      }
    }
  }
  attr {
    key: "shared_name"
    value {
      s: ""
    }
  }
}
node {
  name: "u_net/conv2_2/b_conv2d/Assign"
  op: "Assign"
  input: "u_net/conv2_2/b_conv2d"
  input: "u_net/conv2_2/b_conv2d/Initializer/Const"
  attr {
    key: "T"
    value {
      type: DT_FLOAT
    }
  }
  attr {
    key: "_class"
    value {
      list {
        s: "loc:@u_net/conv2_2/b_conv2d"
      }
    }
  }
  attr {
    key: "use_locking"
    value {
      b: true
    }
  }
  attr {
    key: "validate_shape"
    value {
      b: true
    }
  }
}
node {
  name: "u_net/conv2_2/b_conv2d/read"
  op: "Identity"
  input: "u_net/conv2_2/b_conv2d"
  attr {
    key: "T"
    value {
      type: DT_FLOAT
    }
  }
  attr {
    key: "_class"
    value {
      list {
        s: "loc:@u_net/conv2_2/b_conv2d"
      }
    }
  }
}
node {
  name: "u_net/conv2_2/summaries_1/Rank"
  op: "Const"
  attr {
    key: "dtype"
    value {
      type: DT_INT32
    }
  }
  attr {
    key: "value"
    value {
      tensor {
        dtype: DT_INT32
        tensor_shape {
        }
        int_val: 1
      }
    }
  }
}
node {
  name: "u_net/conv2_2/summaries_1/range/start"
  op: "Const"
  attr {
    key: "dtype"
    value {
      type: DT_INT32
    }
  }
  attr {
    key: "value"
    value {
      tensor {
        dtype: DT_INT32
        tensor_shape {
        }
        int_val: 0
      }
    }
  }
}
node {
  name: "u_net/conv2_2/summaries_1/range/delta"
  op: "Const"
  attr {
    key: "dtype"
    value {
      type: DT_INT32
    }
  }
  attr {
    key: "value"
    value {
      tensor {
        dtype: DT_INT32
        tensor_shape {
        }
        int_val: 1
      }
    }
  }
}
node {
  name: "u_net/conv2_2/summaries_1/range"
  op: "Range"
  input: "u_net/conv2_2/summaries_1/range/start"
  input: "u_net/conv2_2/summaries_1/Rank"
  input: "u_net/conv2_2/summaries_1/range/delta"
  attr {
    key: "Tidx"
    value {
      type: DT_INT32
    }
  }
}
node {
  name: "u_net/conv2_2/summaries_1/Mean"
  op: "Mean"
  input: "u_net/conv2_2/b_conv2d/read"
  input: "u_net/conv2_2/summaries_1/range"
  attr {
    key: "T"
    value {
      type: DT_FLOAT
    }
  }
  attr {
    key: "Tidx"
    value {
      type: DT_INT32
    }
  }
  attr {
    key: "keep_dims"
    value {
      b: false
    }
  }
}
node {
  name: "u_net/conv2_2/summaries_1/mean/Biases/tags"
  op: "Const"
  attr {
    key: "dtype"
    value {
      type: DT_STRING
    }
  }
  attr {
    key: "value"
    value {
      tensor {
        dtype: DT_STRING
        tensor_shape {
        }
        string_val: "u_net/conv2_2/summaries_1/mean/Biases"
      }
    }
  }
}
node {
  name: "u_net/conv2_2/summaries_1/mean/Biases"
  op: "ScalarSummary"
  input: "u_net/conv2_2/summaries_1/mean/Biases/tags"
  input: "u_net/conv2_2/summaries_1/Mean"
  attr {
    key: "T"
    value {
      type: DT_FLOAT
    }
  }
}
node {
  name: "u_net/conv2_2/summaries_1/stddev/sub"
  op: "Sub"
  input: "u_net/conv2_2/b_conv2d/read"
  input: "u_net/conv2_2/summaries_1/Mean"
  attr {
    key: "T"
    value {
      type: DT_FLOAT
    }
  }
}
node {
  name: "u_net/conv2_2/summaries_1/stddev/Square"
  op: "Square"
  input: "u_net/conv2_2/summaries_1/stddev/sub"
  attr {
    key: "T"
    value {
      type: DT_FLOAT
    }
  }
}
node {
  name: "u_net/conv2_2/summaries_1/stddev/Const"
  op: "Const"
  attr {
    key: "dtype"
    value {
      type: DT_INT32
    }
  }
  attr {
    key: "value"
    value {
      tensor {
        dtype: DT_INT32
        tensor_shape {
          dim {
            size: 1
          }
        }
        int_val: 0
      }
    }
  }
}
node {
  name: "u_net/conv2_2/summaries_1/stddev/Sum"
  op: "Sum"
  input: "u_net/conv2_2/summaries_1/stddev/Square"
  input: "u_net/conv2_2/summaries_1/stddev/Const"
  attr {
    key: "T"
    value {
      type: DT_FLOAT
    }
  }
  attr {
    key: "Tidx"
    value {
      type: DT_INT32
    }
  }
  attr {
    key: "keep_dims"
    value {
      b: false
    }
  }
}
node {
  name: "u_net/conv2_2/summaries_1/stddev/Sqrt"
  op: "Sqrt"
  input: "u_net/conv2_2/summaries_1/stddev/Sum"
  attr {
    key: "T"
    value {
      type: DT_FLOAT
    }
  }
}
node {
  name: "u_net/conv2_2/summaries_1/sttdev/Biases/tags"
  op: "Const"
  attr {
    key: "dtype"
    value {
      type: DT_STRING
    }
  }
  attr {
    key: "value"
    value {
      tensor {
        dtype: DT_STRING
        tensor_shape {
        }
        string_val: "u_net/conv2_2/summaries_1/sttdev/Biases"
      }
    }
  }
}
node {
  name: "u_net/conv2_2/summaries_1/sttdev/Biases"
  op: "ScalarSummary"
  input: "u_net/conv2_2/summaries_1/sttdev/Biases/tags"
  input: "u_net/conv2_2/summaries_1/stddev/Sqrt"
  attr {
    key: "T"
    value {
      type: DT_FLOAT
    }
  }
}
node {
  name: "u_net/conv2_2/summaries_1/Rank_1"
  op: "Const"
  attr {
    key: "dtype"
    value {
      type: DT_INT32
    }
  }
  attr {
    key: "value"
    value {
      tensor {
        dtype: DT_INT32
        tensor_shape {
        }
        int_val: 1
      }
    }
  }
}
node {
  name: "u_net/conv2_2/summaries_1/range_1/start"
  op: "Const"
  attr {
    key: "dtype"
    value {
      type: DT_INT32
    }
  }
  attr {
    key: "value"
    value {
      tensor {
        dtype: DT_INT32
        tensor_shape {
        }
        int_val: 0
      }
    }
  }
}
node {
  name: "u_net/conv2_2/summaries_1/range_1/delta"
  op: "Const"
  attr {
    key: "dtype"
    value {
      type: DT_INT32
    }
  }
  attr {
    key: "value"
    value {
      tensor {
        dtype: DT_INT32
        tensor_shape {
        }
        int_val: 1
      }
    }
  }
}
node {
  name: "u_net/conv2_2/summaries_1/range_1"
  op: "Range"
  input: "u_net/conv2_2/summaries_1/range_1/start"
  input: "u_net/conv2_2/summaries_1/Rank_1"
  input: "u_net/conv2_2/summaries_1/range_1/delta"
  attr {
    key: "Tidx"
    value {
      type: DT_INT32
    }
  }
}
node {
  name: "u_net/conv2_2/summaries_1/Max"
  op: "Max"
  input: "u_net/conv2_2/b_conv2d/read"
  input: "u_net/conv2_2/summaries_1/range_1"
  attr {
    key: "T"
    value {
      type: DT_FLOAT
    }
  }
  attr {
    key: "Tidx"
    value {
      type: DT_INT32
    }
  }
  attr {
    key: "keep_dims"
    value {
      b: false
    }
  }
}
node {
  name: "u_net/conv2_2/summaries_1/max/Biases/tags"
  op: "Const"
  attr {
    key: "dtype"
    value {
      type: DT_STRING
    }
  }
  attr {
    key: "value"
    value {
      tensor {
        dtype: DT_STRING
        tensor_shape {
        }
        string_val: "u_net/conv2_2/summaries_1/max/Biases"
      }
    }
  }
}
node {
  name: "u_net/conv2_2/summaries_1/max/Biases"
  op: "ScalarSummary"
  input: "u_net/conv2_2/summaries_1/max/Biases/tags"
  input: "u_net/conv2_2/summaries_1/Max"
  attr {
    key: "T"
    value {
      type: DT_FLOAT
    }
  }
}
node {
  name: "u_net/conv2_2/summaries_1/Rank_2"
  op: "Const"
  attr {
    key: "dtype"
    value {
      type: DT_INT32
    }
  }
  attr {
    key: "value"
    value {
      tensor {
        dtype: DT_INT32
        tensor_shape {
        }
        int_val: 1
      }
    }
  }
}
node {
  name: "u_net/conv2_2/summaries_1/range_2/start"
  op: "Const"
  attr {
    key: "dtype"
    value {
      type: DT_INT32
    }
  }
  attr {
    key: "value"
    value {
      tensor {
        dtype: DT_INT32
        tensor_shape {
        }
        int_val: 0
      }
    }
  }
}
node {
  name: "u_net/conv2_2/summaries_1/range_2/delta"
  op: "Const"
  attr {
    key: "dtype"
    value {
      type: DT_INT32
    }
  }
  attr {
    key: "value"
    value {
      tensor {
        dtype: DT_INT32
        tensor_shape {
        }
        int_val: 1
      }
    }
  }
}
node {
  name: "u_net/conv2_2/summaries_1/range_2"
  op: "Range"
  input: "u_net/conv2_2/summaries_1/range_2/start"
  input: "u_net/conv2_2/summaries_1/Rank_2"
  input: "u_net/conv2_2/summaries_1/range_2/delta"
  attr {
    key: "Tidx"
    value {
      type: DT_INT32
    }
  }
}
node {
  name: "u_net/conv2_2/summaries_1/Min"
  op: "Min"
  input: "u_net/conv2_2/b_conv2d/read"
  input: "u_net/conv2_2/summaries_1/range_2"
  attr {
    key: "T"
    value {
      type: DT_FLOAT
    }
  }
  attr {
    key: "Tidx"
    value {
      type: DT_INT32
    }
  }
  attr {
    key: "keep_dims"
    value {
      b: false
    }
  }
}
node {
  name: "u_net/conv2_2/summaries_1/min/Biases/tags"
  op: "Const"
  attr {
    key: "dtype"
    value {
      type: DT_STRING
    }
  }
  attr {
    key: "value"
    value {
      tensor {
        dtype: DT_STRING
        tensor_shape {
        }
        string_val: "u_net/conv2_2/summaries_1/min/Biases"
      }
    }
  }
}
node {
  name: "u_net/conv2_2/summaries_1/min/Biases"
  op: "ScalarSummary"
  input: "u_net/conv2_2/summaries_1/min/Biases/tags"
  input: "u_net/conv2_2/summaries_1/Min"
  attr {
    key: "T"
    value {
      type: DT_FLOAT
    }
  }
}
node {
  name: "u_net/conv2_2/Conv2D"
  op: "Conv2D"
  input: "u_net/conv2_1/Relu"
  input: "u_net/conv2_2/W_conv2d/read"
  attr {
    key: "T"
    value {
      type: DT_FLOAT
    }
  }
  attr {
    key: "data_format"
    value {
      s: "NHWC"
    }
  }
  attr {
    key: "dilations"
    value {
      list {
        i: 1
        i: 1
        i: 1
        i: 1
      }
    }
  }
  attr {
    key: "padding"
    value {
      s: "SAME"
    }
  }
  attr {
    key: "strides"
    value {
      list {
        i: 1
        i: 1
        i: 1
        i: 1
      }
    }
  }
  attr {
    key: "use_cudnn_on_gpu"
    value {
      b: true
    }
  }
}
node {
  name: "u_net/conv2_2/add"
  op: "Add"
  input: "u_net/conv2_2/Conv2D"
  input: "u_net/conv2_2/b_conv2d/read"
  attr {
    key: "T"
    value {
      type: DT_FLOAT
    }
  }
}
node {
  name: "u_net/conv2_2/Relu"
  op: "Relu"
  input: "u_net/conv2_2/add"
  attr {
    key: "T"
    value {
      type: DT_FLOAT
    }
  }
}
node {
  name: "u_net/bn2/beta/Initializer/zeros"
  op: "Const"
  attr {
    key: "_class"
    value {
      list {
        s: "loc:@u_net/bn2/beta"
      }
    }
  }
  attr {
    key: "dtype"
    value {
      type: DT_FLOAT
    }
  }
  attr {
    key: "value"
    value {
      tensor {
        dtype: DT_FLOAT
        tensor_shape {
          dim {
            size: 64
          }
        }
        float_val: 0.0
      }
    }
  }
}
node {
  name: "u_net/bn2/beta"
  op: "VariableV2"
  attr {
    key: "_class"
    value {
      list {
        s: "loc:@u_net/bn2/beta"
      }
    }
  }
  attr {
    key: "container"
    value {
      s: ""
    }
  }
  attr {
    key: "dtype"
    value {
      type: DT_FLOAT
    }
  }
  attr {
    key: "shape"
    value {
      shape {
        dim {
          size: 64
        }
      }
    }
  }
  attr {
    key: "shared_name"
    value {
      s: ""
    }
  }
}
node {
  name: "u_net/bn2/beta/Assign"
  op: "Assign"
  input: "u_net/bn2/beta"
  input: "u_net/bn2/beta/Initializer/zeros"
  attr {
    key: "T"
    value {
      type: DT_FLOAT
    }
  }
  attr {
    key: "_class"
    value {
      list {
        s: "loc:@u_net/bn2/beta"
      }
    }
  }
  attr {
    key: "use_locking"
    value {
      b: true
    }
  }
  attr {
    key: "validate_shape"
    value {
      b: true
    }
  }
}
node {
  name: "u_net/bn2/beta/read"
  op: "Identity"
  input: "u_net/bn2/beta"
  attr {
    key: "T"
    value {
      type: DT_FLOAT
    }
  }
  attr {
    key: "_class"
    value {
      list {
        s: "loc:@u_net/bn2/beta"
      }
    }
  }
}
node {
  name: "u_net/bn2/gamma/Initializer/random_normal/shape"
  op: "Const"
  attr {
    key: "_class"
    value {
      list {
        s: "loc:@u_net/bn2/gamma"
      }
    }
  }
  attr {
    key: "dtype"
    value {
      type: DT_INT32
    }
  }
  attr {
    key: "value"
    value {
      tensor {
        dtype: DT_INT32
        tensor_shape {
          dim {
            size: 1
          }
        }
        int_val: 64
      }
    }
  }
}
node {
  name: "u_net/bn2/gamma/Initializer/random_normal/mean"
  op: "Const"
  attr {
    key: "_class"
    value {
      list {
        s: "loc:@u_net/bn2/gamma"
      }
    }
  }
  attr {
    key: "dtype"
    value {
      type: DT_FLOAT
    }
  }
  attr {
    key: "value"
    value {
      tensor {
        dtype: DT_FLOAT
        tensor_shape {
        }
        float_val: 1.0
      }
    }
  }
}
node {
  name: "u_net/bn2/gamma/Initializer/random_normal/stddev"
  op: "Const"
  attr {
    key: "_class"
    value {
      list {
        s: "loc:@u_net/bn2/gamma"
      }
    }
  }
  attr {
    key: "dtype"
    value {
      type: DT_FLOAT
    }
  }
  attr {
    key: "value"
    value {
      tensor {
        dtype: DT_FLOAT
        tensor_shape {
        }
        float_val: 0.019999999552965164
      }
    }
  }
}
node {
  name: "u_net/bn2/gamma/Initializer/random_normal/RandomStandardNormal"
  op: "RandomStandardNormal"
  input: "u_net/bn2/gamma/Initializer/random_normal/shape"
  attr {
    key: "T"
    value {
      type: DT_INT32
    }
  }
  attr {
    key: "_class"
    value {
      list {
        s: "loc:@u_net/bn2/gamma"
      }
    }
  }
  attr {
    key: "dtype"
    value {
      type: DT_FLOAT
    }
  }
  attr {
    key: "seed"
    value {
      i: 0
    }
  }
  attr {
    key: "seed2"
    value {
      i: 0
    }
  }
}
node {
  name: "u_net/bn2/gamma/Initializer/random_normal/mul"
  op: "Mul"
  input: "u_net/bn2/gamma/Initializer/random_normal/RandomStandardNormal"
  input: "u_net/bn2/gamma/Initializer/random_normal/stddev"
  attr {
    key: "T"
    value {
      type: DT_FLOAT
    }
  }
  attr {
    key: "_class"
    value {
      list {
        s: "loc:@u_net/bn2/gamma"
      }
    }
  }
}
node {
  name: "u_net/bn2/gamma/Initializer/random_normal"
  op: "Add"
  input: "u_net/bn2/gamma/Initializer/random_normal/mul"
  input: "u_net/bn2/gamma/Initializer/random_normal/mean"
  attr {
    key: "T"
    value {
      type: DT_FLOAT
    }
  }
  attr {
    key: "_class"
    value {
      list {
        s: "loc:@u_net/bn2/gamma"
      }
    }
  }
}
node {
  name: "u_net/bn2/gamma"
  op: "VariableV2"
  attr {
    key: "_class"
    value {
      list {
        s: "loc:@u_net/bn2/gamma"
      }
    }
  }
  attr {
    key: "container"
    value {
      s: ""
    }
  }
  attr {
    key: "dtype"
    value {
      type: DT_FLOAT
    }
  }
  attr {
    key: "shape"
    value {
      shape {
        dim {
          size: 64
        }
      }
    }
  }
  attr {
    key: "shared_name"
    value {
      s: ""
    }
  }
}
node {
  name: "u_net/bn2/gamma/Assign"
  op: "Assign"
  input: "u_net/bn2/gamma"
  input: "u_net/bn2/gamma/Initializer/random_normal"
  attr {
    key: "T"
    value {
      type: DT_FLOAT
    }
  }
  attr {
    key: "_class"
    value {
      list {
        s: "loc:@u_net/bn2/gamma"
      }
    }
  }
  attr {
    key: "use_locking"
    value {
      b: true
    }
  }
  attr {
    key: "validate_shape"
    value {
      b: true
    }
  }
}
node {
  name: "u_net/bn2/gamma/read"
  op: "Identity"
  input: "u_net/bn2/gamma"
  attr {
    key: "T"
    value {
      type: DT_FLOAT
    }
  }
  attr {
    key: "_class"
    value {
      list {
        s: "loc:@u_net/bn2/gamma"
      }
    }
  }
}
node {
  name: "u_net/bn2/moving_mean/Initializer/zeros"
  op: "Const"
  attr {
    key: "_class"
    value {
      list {
        s: "loc:@u_net/bn2/moving_mean"
      }
    }
  }
  attr {
    key: "dtype"
    value {
      type: DT_FLOAT
    }
  }
  attr {
    key: "value"
    value {
      tensor {
        dtype: DT_FLOAT
        tensor_shape {
          dim {
            size: 64
          }
        }
        float_val: 0.0
      }
    }
  }
}
node {
  name: "u_net/bn2/moving_mean"
  op: "VariableV2"
  attr {
    key: "_class"
    value {
      list {
        s: "loc:@u_net/bn2/moving_mean"
      }
    }
  }
  attr {
    key: "container"
    value {
      s: ""
    }
  }
  attr {
    key: "dtype"
    value {
      type: DT_FLOAT
    }
  }
  attr {
    key: "shape"
    value {
      shape {
        dim {
          size: 64
        }
      }
    }
  }
  attr {
    key: "shared_name"
    value {
      s: ""
    }
  }
}
node {
  name: "u_net/bn2/moving_mean/Assign"
  op: "Assign"
  input: "u_net/bn2/moving_mean"
  input: "u_net/bn2/moving_mean/Initializer/zeros"
  attr {
    key: "T"
    value {
      type: DT_FLOAT
    }
  }
  attr {
    key: "_class"
    value {
      list {
        s: "loc:@u_net/bn2/moving_mean"
      }
    }
  }
  attr {
    key: "use_locking"
    value {
      b: true
    }
  }
  attr {
    key: "validate_shape"
    value {
      b: true
    }
  }
}
node {
  name: "u_net/bn2/moving_mean/read"
  op: "Identity"
  input: "u_net/bn2/moving_mean"
  attr {
    key: "T"
    value {
      type: DT_FLOAT
    }
  }
  attr {
    key: "_class"
    value {
      list {
        s: "loc:@u_net/bn2/moving_mean"
      }
    }
  }
}
node {
  name: "u_net/bn2/moving_variance/Initializer/Const"
  op: "Const"
  attr {
    key: "_class"
    value {
      list {
        s: "loc:@u_net/bn2/moving_variance"
      }
    }
  }
  attr {
    key: "dtype"
    value {
      type: DT_FLOAT
    }
  }
  attr {
    key: "value"
    value {
      tensor {
        dtype: DT_FLOAT
        tensor_shape {
          dim {
            size: 64
          }
        }
        float_val: 1.0
      }
    }
  }
}
node {
  name: "u_net/bn2/moving_variance"
  op: "VariableV2"
  attr {
    key: "_class"
    value {
      list {
        s: "loc:@u_net/bn2/moving_variance"
      }
    }
  }
  attr {
    key: "container"
    value {
      s: ""
    }
  }
  attr {
    key: "dtype"
    value {
      type: DT_FLOAT
    }
  }
  attr {
    key: "shape"
    value {
      shape {
        dim {
          size: 64
        }
      }
    }
  }
  attr {
    key: "shared_name"
    value {
      s: ""
    }
  }
}
node {
  name: "u_net/bn2/moving_variance/Assign"
  op: "Assign"
  input: "u_net/bn2/moving_variance"
  input: "u_net/bn2/moving_variance/Initializer/Const"
  attr {
    key: "T"
    value {
      type: DT_FLOAT
    }
  }
  attr {
    key: "_class"
    value {
      list {
        s: "loc:@u_net/bn2/moving_variance"
      }
    }
  }
  attr {
    key: "use_locking"
    value {
      b: true
    }
  }
  attr {
    key: "validate_shape"
    value {
      b: true
    }
  }
}
node {
  name: "u_net/bn2/moving_variance/read"
  op: "Identity"
  input: "u_net/bn2/moving_variance"
  attr {
    key: "T"
    value {
      type: DT_FLOAT
    }
  }
  attr {
    key: "_class"
    value {
      list {
        s: "loc:@u_net/bn2/moving_variance"
      }
    }
  }
}
node {
  name: "u_net/bn2/moments/mean/reduction_indices"
  op: "Const"
  attr {
    key: "dtype"
    value {
      type: DT_INT32
    }
  }
  attr {
    key: "value"
    value {
      tensor {
        dtype: DT_INT32
        tensor_shape {
          dim {
            size: 3
          }
        }
        tensor_content: "\000\000\000\000\001\000\000\000\002\000\000\000"
      }
    }
  }
}
node {
  name: "u_net/bn2/moments/mean"
  op: "Mean"
  input: "u_net/conv2_2/Relu"
  input: "u_net/bn2/moments/mean/reduction_indices"
  attr {
    key: "T"
    value {
      type: DT_FLOAT
    }
  }
  attr {
    key: "Tidx"
    value {
      type: DT_INT32
    }
  }
  attr {
    key: "keep_dims"
    value {
      b: true
    }
  }
}
node {
  name: "u_net/bn2/moments/StopGradient"
  op: "StopGradient"
  input: "u_net/bn2/moments/mean"
  attr {
    key: "T"
    value {
      type: DT_FLOAT
    }
  }
}
node {
  name: "u_net/bn2/moments/SquaredDifference"
  op: "SquaredDifference"
  input: "u_net/conv2_2/Relu"
  input: "u_net/bn2/moments/StopGradient"
  attr {
    key: "T"
    value {
      type: DT_FLOAT
    }
  }
}
node {
  name: "u_net/bn2/moments/variance/reduction_indices"
  op: "Const"
  attr {
    key: "dtype"
    value {
      type: DT_INT32
    }
  }
  attr {
    key: "value"
    value {
      tensor {
        dtype: DT_INT32
        tensor_shape {
          dim {
            size: 3
          }
        }
        tensor_content: "\000\000\000\000\001\000\000\000\002\000\000\000"
      }
    }
  }
}
node {
  name: "u_net/bn2/moments/variance"
  op: "Mean"
  input: "u_net/bn2/moments/SquaredDifference"
  input: "u_net/bn2/moments/variance/reduction_indices"
  attr {
    key: "T"
    value {
      type: DT_FLOAT
    }
  }
  attr {
    key: "Tidx"
    value {
      type: DT_INT32
    }
  }
  attr {
    key: "keep_dims"
    value {
      b: true
    }
  }
}
node {
  name: "u_net/bn2/moments/Squeeze"
  op: "Squeeze"
  input: "u_net/bn2/moments/mean"
  attr {
    key: "T"
    value {
      type: DT_FLOAT
    }
  }
  attr {
    key: "squeeze_dims"
    value {
      list {
        i: 0
        i: 1
        i: 2
      }
    }
  }
}
node {
  name: "u_net/bn2/moments/Squeeze_1"
  op: "Squeeze"
  input: "u_net/bn2/moments/variance"
  attr {
    key: "T"
    value {
      type: DT_FLOAT
    }
  }
  attr {
    key: "squeeze_dims"
    value {
      list {
        i: 0
        i: 1
        i: 2
      }
    }
  }
}
node {
  name: "u_net/bn2/AssignMovingAvg/decay"
  op: "Const"
  attr {
    key: "_class"
    value {
      list {
        s: "loc:@u_net/bn2/moving_mean"
      }
    }
  }
  attr {
    key: "dtype"
    value {
      type: DT_FLOAT
    }
  }
  attr {
    key: "value"
    value {
      tensor {
        dtype: DT_FLOAT
        tensor_shape {
        }
        float_val: 0.10000000149011612
      }
    }
  }
}
node {
  name: "u_net/bn2/AssignMovingAvg/sub"
  op: "Sub"
  input: "u_net/bn2/moving_mean/read"
  input: "u_net/bn2/moments/Squeeze"
  attr {
    key: "T"
    value {
      type: DT_FLOAT
    }
  }
  attr {
    key: "_class"
    value {
      list {
        s: "loc:@u_net/bn2/moving_mean"
      }
    }
  }
}
node {
  name: "u_net/bn2/AssignMovingAvg/mul"
  op: "Mul"
  input: "u_net/bn2/AssignMovingAvg/sub"
  input: "u_net/bn2/AssignMovingAvg/decay"
  attr {
    key: "T"
    value {
      type: DT_FLOAT
    }
  }
  attr {
    key: "_class"
    value {
      list {
        s: "loc:@u_net/bn2/moving_mean"
      }
    }
  }
}
node {
  name: "u_net/bn2/AssignMovingAvg"
  op: "AssignSub"
  input: "u_net/bn2/moving_mean"
  input: "u_net/bn2/AssignMovingAvg/mul"
  attr {
    key: "T"
    value {
      type: DT_FLOAT
    }
  }
  attr {
    key: "_class"
    value {
      list {
        s: "loc:@u_net/bn2/moving_mean"
      }
    }
  }
  attr {
    key: "use_locking"
    value {
      b: false
    }
  }
}
node {
  name: "u_net/bn2/AssignMovingAvg_1/decay"
  op: "Const"
  attr {
    key: "_class"
    value {
      list {
        s: "loc:@u_net/bn2/moving_variance"
      }
    }
  }
  attr {
    key: "dtype"
    value {
      type: DT_FLOAT
    }
  }
  attr {
    key: "value"
    value {
      tensor {
        dtype: DT_FLOAT
        tensor_shape {
        }
        float_val: 0.10000000149011612
      }
    }
  }
}
node {
  name: "u_net/bn2/AssignMovingAvg_1/sub"
  op: "Sub"
  input: "u_net/bn2/moving_variance/read"
  input: "u_net/bn2/moments/Squeeze_1"
  attr {
    key: "T"
    value {
      type: DT_FLOAT
    }
  }
  attr {
    key: "_class"
    value {
      list {
        s: "loc:@u_net/bn2/moving_variance"
      }
    }
  }
}
node {
  name: "u_net/bn2/AssignMovingAvg_1/mul"
  op: "Mul"
  input: "u_net/bn2/AssignMovingAvg_1/sub"
  input: "u_net/bn2/AssignMovingAvg_1/decay"
  attr {
    key: "T"
    value {
      type: DT_FLOAT
    }
  }
  attr {
    key: "_class"
    value {
      list {
        s: "loc:@u_net/bn2/moving_variance"
      }
    }
  }
}
node {
  name: "u_net/bn2/AssignMovingAvg_1"
  op: "AssignSub"
  input: "u_net/bn2/moving_variance"
  input: "u_net/bn2/AssignMovingAvg_1/mul"
  attr {
    key: "T"
    value {
      type: DT_FLOAT
    }
  }
  attr {
    key: "_class"
    value {
      list {
        s: "loc:@u_net/bn2/moving_variance"
      }
    }
  }
  attr {
    key: "use_locking"
    value {
      b: false
    }
  }
}
node {
  name: "u_net/bn2/Identity"
  op: "Identity"
  input: "u_net/bn2/moments/Squeeze"
  input: "^u_net/bn2/AssignMovingAvg"
  input: "^u_net/bn2/AssignMovingAvg_1"
  attr {
    key: "T"
    value {
      type: DT_FLOAT
    }
  }
}
node {
  name: "u_net/bn2/Identity_1"
  op: "Identity"
  input: "u_net/bn2/moments/Squeeze_1"
  input: "^u_net/bn2/AssignMovingAvg"
  input: "^u_net/bn2/AssignMovingAvg_1"
  attr {
    key: "T"
    value {
      type: DT_FLOAT
    }
  }
}
node {
  name: "u_net/bn2/batchnorm/add/y"
  op: "Const"
  attr {
    key: "dtype"
    value {
      type: DT_FLOAT
    }
  }
  attr {
    key: "value"
    value {
      tensor {
        dtype: DT_FLOAT
        tensor_shape {
        }
        float_val: 9.999999747378752e-06
      }
    }
  }
}
node {
  name: "u_net/bn2/batchnorm/add"
  op: "Add"
  input: "u_net/bn2/Identity_1"
  input: "u_net/bn2/batchnorm/add/y"
  attr {
    key: "T"
    value {
      type: DT_FLOAT
    }
  }
}
node {
  name: "u_net/bn2/batchnorm/Rsqrt"
  op: "Rsqrt"
  input: "u_net/bn2/batchnorm/add"
  attr {
    key: "T"
    value {
      type: DT_FLOAT
    }
  }
}
node {
  name: "u_net/bn2/batchnorm/mul"
  op: "Mul"
  input: "u_net/bn2/batchnorm/Rsqrt"
  input: "u_net/bn2/gamma/read"
  attr {
    key: "T"
    value {
      type: DT_FLOAT
    }
  }
}
node {
  name: "u_net/bn2/batchnorm/mul_1"
  op: "Mul"
  input: "u_net/conv2_2/Relu"
  input: "u_net/bn2/batchnorm/mul"
  attr {
    key: "T"
    value {
      type: DT_FLOAT
    }
  }
}
node {
  name: "u_net/bn2/batchnorm/mul_2"
  op: "Mul"
  input: "u_net/bn2/Identity"
  input: "u_net/bn2/batchnorm/mul"
  attr {
    key: "T"
    value {
      type: DT_FLOAT
    }
  }
}
node {
  name: "u_net/bn2/batchnorm/sub"
  op: "Sub"
  input: "u_net/bn2/beta/read"
  input: "u_net/bn2/batchnorm/mul_2"
  attr {
    key: "T"
    value {
      type: DT_FLOAT
    }
  }
}
node {
  name: "u_net/bn2/batchnorm/add_1"
  op: "Add"
  input: "u_net/bn2/batchnorm/mul_1"
  input: "u_net/bn2/batchnorm/sub"
  attr {
    key: "T"
    value {
      type: DT_FLOAT
    }
  }
}
node {
  name: "u_net/bn2/Identity_2"
  op: "Identity"
  input: "u_net/bn2/batchnorm/add_1"
  attr {
    key: "T"
    value {
      type: DT_FLOAT
    }
  }
}
node {
  name: "u_net/pool2"
  op: "MaxPool"
  input: "u_net/bn2/Identity_2"
  attr {
    key: "T"
    value {
      type: DT_FLOAT
    }
  }
  attr {
    key: "data_format"
    value {
      s: "NHWC"
    }
  }
  attr {
    key: "ksize"
    value {
      list {
        i: 1
        i: 2
        i: 2
        i: 1
      }
    }
  }
  attr {
    key: "padding"
    value {
      s: "SAME"
    }
  }
  attr {
    key: "strides"
    value {
      list {
        i: 1
        i: 2
        i: 2
        i: 1
      }
    }
  }
}
node {
  name: "u_net/conv3_1/W_conv2d/Initializer/truncated_normal/shape"
  op: "Const"
  attr {
    key: "_class"
    value {
      list {
        s: "loc:@u_net/conv3_1/W_conv2d"
      }
    }
  }
  attr {
    key: "dtype"
    value {
      type: DT_INT32
    }
  }
  attr {
    key: "value"
    value {
      tensor {
        dtype: DT_INT32
        tensor_shape {
          dim {
            size: 4
          }
        }
        tensor_content: "\003\000\000\000\003\000\000\000@\000\000\000@\000\000\000"
      }
    }
  }
}
node {
  name: "u_net/conv3_1/W_conv2d/Initializer/truncated_normal/mean"
  op: "Const"
  attr {
    key: "_class"
    value {
      list {
        s: "loc:@u_net/conv3_1/W_conv2d"
      }
    }
  }
  attr {
    key: "dtype"
    value {
      type: DT_FLOAT
    }
  }
  attr {
    key: "value"
    value {
      tensor {
        dtype: DT_FLOAT
        tensor_shape {
        }
        float_val: 0.0
      }
    }
  }
}
node {
  name: "u_net/conv3_1/W_conv2d/Initializer/truncated_normal/stddev"
  op: "Const"
  attr {
    key: "_class"
    value {
      list {
        s: "loc:@u_net/conv3_1/W_conv2d"
      }
    }
  }
  attr {
    key: "dtype"
    value {
      type: DT_FLOAT
    }
  }
  attr {
    key: "value"
    value {
      tensor {
        dtype: DT_FLOAT
        tensor_shape {
        }
        float_val: 0.009999999776482582
      }
    }
  }
}
node {
  name: "u_net/conv3_1/W_conv2d/Initializer/truncated_normal/TruncatedNormal"
  op: "TruncatedNormal"
  input: "u_net/conv3_1/W_conv2d/Initializer/truncated_normal/shape"
  attr {
    key: "T"
    value {
      type: DT_INT32
    }
  }
  attr {
    key: "_class"
    value {
      list {
        s: "loc:@u_net/conv3_1/W_conv2d"
      }
    }
  }
  attr {
    key: "dtype"
    value {
      type: DT_FLOAT
    }
  }
  attr {
    key: "seed"
    value {
      i: 0
    }
  }
  attr {
    key: "seed2"
    value {
      i: 0
    }
  }
}
node {
  name: "u_net/conv3_1/W_conv2d/Initializer/truncated_normal/mul"
  op: "Mul"
  input: "u_net/conv3_1/W_conv2d/Initializer/truncated_normal/TruncatedNormal"
  input: "u_net/conv3_1/W_conv2d/Initializer/truncated_normal/stddev"
  attr {
    key: "T"
    value {
      type: DT_FLOAT
    }
  }
  attr {
    key: "_class"
    value {
      list {
        s: "loc:@u_net/conv3_1/W_conv2d"
      }
    }
  }
}
node {
  name: "u_net/conv3_1/W_conv2d/Initializer/truncated_normal"
  op: "Add"
  input: "u_net/conv3_1/W_conv2d/Initializer/truncated_normal/mul"
  input: "u_net/conv3_1/W_conv2d/Initializer/truncated_normal/mean"
  attr {
    key: "T"
    value {
      type: DT_FLOAT
    }
  }
  attr {
    key: "_class"
    value {
      list {
        s: "loc:@u_net/conv3_1/W_conv2d"
      }
    }
  }
}
node {
  name: "u_net/conv3_1/W_conv2d"
  op: "VariableV2"
  attr {
    key: "_class"
    value {
      list {
        s: "loc:@u_net/conv3_1/W_conv2d"
      }
    }
  }
  attr {
    key: "container"
    value {
      s: ""
    }
  }
  attr {
    key: "dtype"
    value {
      type: DT_FLOAT
    }
  }
  attr {
    key: "shape"
    value {
      shape {
        dim {
          size: 3
        }
        dim {
          size: 3
        }
        dim {
          size: 64
        }
        dim {
          size: 64
        }
      }
    }
  }
  attr {
    key: "shared_name"
    value {
      s: ""
    }
  }
}
node {
  name: "u_net/conv3_1/W_conv2d/Assign"
  op: "Assign"
  input: "u_net/conv3_1/W_conv2d"
  input: "u_net/conv3_1/W_conv2d/Initializer/truncated_normal"
  attr {
    key: "T"
    value {
      type: DT_FLOAT
    }
  }
  attr {
    key: "_class"
    value {
      list {
        s: "loc:@u_net/conv3_1/W_conv2d"
      }
    }
  }
  attr {
    key: "use_locking"
    value {
      b: true
    }
  }
  attr {
    key: "validate_shape"
    value {
      b: true
    }
  }
}
node {
  name: "u_net/conv3_1/W_conv2d/read"
  op: "Identity"
  input: "u_net/conv3_1/W_conv2d"
  attr {
    key: "T"
    value {
      type: DT_FLOAT
    }
  }
  attr {
    key: "_class"
    value {
      list {
        s: "loc:@u_net/conv3_1/W_conv2d"
      }
    }
  }
}
node {
  name: "u_net/conv3_1/summaries/Rank"
  op: "Const"
  attr {
    key: "dtype"
    value {
      type: DT_INT32
    }
  }
  attr {
    key: "value"
    value {
      tensor {
        dtype: DT_INT32
        tensor_shape {
        }
        int_val: 4
      }
    }
  }
}
node {
  name: "u_net/conv3_1/summaries/range/start"
  op: "Const"
  attr {
    key: "dtype"
    value {
      type: DT_INT32
    }
  }
  attr {
    key: "value"
    value {
      tensor {
        dtype: DT_INT32
        tensor_shape {
        }
        int_val: 0
      }
    }
  }
}
node {
  name: "u_net/conv3_1/summaries/range/delta"
  op: "Const"
  attr {
    key: "dtype"
    value {
      type: DT_INT32
    }
  }
  attr {
    key: "value"
    value {
      tensor {
        dtype: DT_INT32
        tensor_shape {
        }
        int_val: 1
      }
    }
  }
}
node {
  name: "u_net/conv3_1/summaries/range"
  op: "Range"
  input: "u_net/conv3_1/summaries/range/start"
  input: "u_net/conv3_1/summaries/Rank"
  input: "u_net/conv3_1/summaries/range/delta"
  attr {
    key: "Tidx"
    value {
      type: DT_INT32
    }
  }
}
node {
  name: "u_net/conv3_1/summaries/Mean"
  op: "Mean"
  input: "u_net/conv3_1/W_conv2d/read"
  input: "u_net/conv3_1/summaries/range"
  attr {
    key: "T"
    value {
      type: DT_FLOAT
    }
  }
  attr {
    key: "Tidx"
    value {
      type: DT_INT32
    }
  }
  attr {
    key: "keep_dims"
    value {
      b: false
    }
  }
}
node {
  name: "u_net/conv3_1/summaries/mean/Weights/tags"
  op: "Const"
  attr {
    key: "dtype"
    value {
      type: DT_STRING
    }
  }
  attr {
    key: "value"
    value {
      tensor {
        dtype: DT_STRING
        tensor_shape {
        }
        string_val: "u_net/conv3_1/summaries/mean/Weights"
      }
    }
  }
}
node {
  name: "u_net/conv3_1/summaries/mean/Weights"
  op: "ScalarSummary"
  input: "u_net/conv3_1/summaries/mean/Weights/tags"
  input: "u_net/conv3_1/summaries/Mean"
  attr {
    key: "T"
    value {
      type: DT_FLOAT
    }
  }
}
node {
  name: "u_net/conv3_1/summaries/stddev/sub"
  op: "Sub"
  input: "u_net/conv3_1/W_conv2d/read"
  input: "u_net/conv3_1/summaries/Mean"
  attr {
    key: "T"
    value {
      type: DT_FLOAT
    }
  }
}
node {
  name: "u_net/conv3_1/summaries/stddev/Square"
  op: "Square"
  input: "u_net/conv3_1/summaries/stddev/sub"
  attr {
    key: "T"
    value {
      type: DT_FLOAT
    }
  }
}
node {
  name: "u_net/conv3_1/summaries/stddev/Const"
  op: "Const"
  attr {
    key: "dtype"
    value {
      type: DT_INT32
    }
  }
  attr {
    key: "value"
    value {
      tensor {
        dtype: DT_INT32
        tensor_shape {
          dim {
            size: 4
          }
        }
        tensor_content: "\000\000\000\000\001\000\000\000\002\000\000\000\003\000\000\000"
      }
    }
  }
}
node {
  name: "u_net/conv3_1/summaries/stddev/Sum"
  op: "Sum"
  input: "u_net/conv3_1/summaries/stddev/Square"
  input: "u_net/conv3_1/summaries/stddev/Const"
  attr {
    key: "T"
    value {
      type: DT_FLOAT
    }
  }
  attr {
    key: "Tidx"
    value {
      type: DT_INT32
    }
  }
  attr {
    key: "keep_dims"
    value {
      b: false
    }
  }
}
node {
  name: "u_net/conv3_1/summaries/stddev/Sqrt"
  op: "Sqrt"
  input: "u_net/conv3_1/summaries/stddev/Sum"
  attr {
    key: "T"
    value {
      type: DT_FLOAT
    }
  }
}
node {
  name: "u_net/conv3_1/summaries/sttdev/Weights/tags"
  op: "Const"
  attr {
    key: "dtype"
    value {
      type: DT_STRING
    }
  }
  attr {
    key: "value"
    value {
      tensor {
        dtype: DT_STRING
        tensor_shape {
        }
        string_val: "u_net/conv3_1/summaries/sttdev/Weights"
      }
    }
  }
}
node {
  name: "u_net/conv3_1/summaries/sttdev/Weights"
  op: "ScalarSummary"
  input: "u_net/conv3_1/summaries/sttdev/Weights/tags"
  input: "u_net/conv3_1/summaries/stddev/Sqrt"
  attr {
    key: "T"
    value {
      type: DT_FLOAT
    }
  }
}
node {
  name: "u_net/conv3_1/summaries/Rank_1"
  op: "Const"
  attr {
    key: "dtype"
    value {
      type: DT_INT32
    }
  }
  attr {
    key: "value"
    value {
      tensor {
        dtype: DT_INT32
        tensor_shape {
        }
        int_val: 4
      }
    }
  }
}
node {
  name: "u_net/conv3_1/summaries/range_1/start"
  op: "Const"
  attr {
    key: "dtype"
    value {
      type: DT_INT32
    }
  }
  attr {
    key: "value"
    value {
      tensor {
        dtype: DT_INT32
        tensor_shape {
        }
        int_val: 0
      }
    }
  }
}
node {
  name: "u_net/conv3_1/summaries/range_1/delta"
  op: "Const"
  attr {
    key: "dtype"
    value {
      type: DT_INT32
    }
  }
  attr {
    key: "value"
    value {
      tensor {
        dtype: DT_INT32
        tensor_shape {
        }
        int_val: 1
      }
    }
  }
}
node {
  name: "u_net/conv3_1/summaries/range_1"
  op: "Range"
  input: "u_net/conv3_1/summaries/range_1/start"
  input: "u_net/conv3_1/summaries/Rank_1"
  input: "u_net/conv3_1/summaries/range_1/delta"
  attr {
    key: "Tidx"
    value {
      type: DT_INT32
    }
  }
}
node {
  name: "u_net/conv3_1/summaries/Max"
  op: "Max"
  input: "u_net/conv3_1/W_conv2d/read"
  input: "u_net/conv3_1/summaries/range_1"
  attr {
    key: "T"
    value {
      type: DT_FLOAT
    }
  }
  attr {
    key: "Tidx"
    value {
      type: DT_INT32
    }
  }
  attr {
    key: "keep_dims"
    value {
      b: false
    }
  }
}
node {
  name: "u_net/conv3_1/summaries/max/Weights/tags"
  op: "Const"
  attr {
    key: "dtype"
    value {
      type: DT_STRING
    }
  }
  attr {
    key: "value"
    value {
      tensor {
        dtype: DT_STRING
        tensor_shape {
        }
        string_val: "u_net/conv3_1/summaries/max/Weights"
      }
    }
  }
}
node {
  name: "u_net/conv3_1/summaries/max/Weights"
  op: "ScalarSummary"
  input: "u_net/conv3_1/summaries/max/Weights/tags"
  input: "u_net/conv3_1/summaries/Max"
  attr {
    key: "T"
    value {
      type: DT_FLOAT
    }
  }
}
node {
  name: "u_net/conv3_1/summaries/Rank_2"
  op: "Const"
  attr {
    key: "dtype"
    value {
      type: DT_INT32
    }
  }
  attr {
    key: "value"
    value {
      tensor {
        dtype: DT_INT32
        tensor_shape {
        }
        int_val: 4
      }
    }
  }
}
node {
  name: "u_net/conv3_1/summaries/range_2/start"
  op: "Const"
  attr {
    key: "dtype"
    value {
      type: DT_INT32
    }
  }
  attr {
    key: "value"
    value {
      tensor {
        dtype: DT_INT32
        tensor_shape {
        }
        int_val: 0
      }
    }
  }
}
node {
  name: "u_net/conv3_1/summaries/range_2/delta"
  op: "Const"
  attr {
    key: "dtype"
    value {
      type: DT_INT32
    }
  }
  attr {
    key: "value"
    value {
      tensor {
        dtype: DT_INT32
        tensor_shape {
        }
        int_val: 1
      }
    }
  }
}
node {
  name: "u_net/conv3_1/summaries/range_2"
  op: "Range"
  input: "u_net/conv3_1/summaries/range_2/start"
  input: "u_net/conv3_1/summaries/Rank_2"
  input: "u_net/conv3_1/summaries/range_2/delta"
  attr {
    key: "Tidx"
    value {
      type: DT_INT32
    }
  }
}
node {
  name: "u_net/conv3_1/summaries/Min"
  op: "Min"
  input: "u_net/conv3_1/W_conv2d/read"
  input: "u_net/conv3_1/summaries/range_2"
  attr {
    key: "T"
    value {
      type: DT_FLOAT
    }
  }
  attr {
    key: "Tidx"
    value {
      type: DT_INT32
    }
  }
  attr {
    key: "keep_dims"
    value {
      b: false
    }
  }
}
node {
  name: "u_net/conv3_1/summaries/min/Weights/tags"
  op: "Const"
  attr {
    key: "dtype"
    value {
      type: DT_STRING
    }
  }
  attr {
    key: "value"
    value {
      tensor {
        dtype: DT_STRING
        tensor_shape {
        }
        string_val: "u_net/conv3_1/summaries/min/Weights"
      }
    }
  }
}
node {
  name: "u_net/conv3_1/summaries/min/Weights"
  op: "ScalarSummary"
  input: "u_net/conv3_1/summaries/min/Weights/tags"
  input: "u_net/conv3_1/summaries/Min"
  attr {
    key: "T"
    value {
      type: DT_FLOAT
    }
  }
}
node {
  name: "u_net/conv3_1/b_conv2d/Initializer/Const"
  op: "Const"
  attr {
    key: "_class"
    value {
      list {
        s: "loc:@u_net/conv3_1/b_conv2d"
      }
    }
  }
  attr {
    key: "dtype"
    value {
      type: DT_FLOAT
    }
  }
  attr {
    key: "value"
    value {
      tensor {
        dtype: DT_FLOAT
        tensor_shape {
          dim {
            size: 64
          }
        }
        float_val: 0.0
      }
    }
  }
}
node {
  name: "u_net/conv3_1/b_conv2d"
  op: "VariableV2"
  attr {
    key: "_class"
    value {
      list {
        s: "loc:@u_net/conv3_1/b_conv2d"
      }
    }
  }
  attr {
    key: "container"
    value {
      s: ""
    }
  }
  attr {
    key: "dtype"
    value {
      type: DT_FLOAT
    }
  }
  attr {
    key: "shape"
    value {
      shape {
        dim {
          size: 64
        }
      }
    }
  }
  attr {
    key: "shared_name"
    value {
      s: ""
    }
  }
}
node {
  name: "u_net/conv3_1/b_conv2d/Assign"
  op: "Assign"
  input: "u_net/conv3_1/b_conv2d"
  input: "u_net/conv3_1/b_conv2d/Initializer/Const"
  attr {
    key: "T"
    value {
      type: DT_FLOAT
    }
  }
  attr {
    key: "_class"
    value {
      list {
        s: "loc:@u_net/conv3_1/b_conv2d"
      }
    }
  }
  attr {
    key: "use_locking"
    value {
      b: true
    }
  }
  attr {
    key: "validate_shape"
    value {
      b: true
    }
  }
}
node {
  name: "u_net/conv3_1/b_conv2d/read"
  op: "Identity"
  input: "u_net/conv3_1/b_conv2d"
  attr {
    key: "T"
    value {
      type: DT_FLOAT
    }
  }
  attr {
    key: "_class"
    value {
      list {
        s: "loc:@u_net/conv3_1/b_conv2d"
      }
    }
  }
}
node {
  name: "u_net/conv3_1/summaries_1/Rank"
  op: "Const"
  attr {
    key: "dtype"
    value {
      type: DT_INT32
    }
  }
  attr {
    key: "value"
    value {
      tensor {
        dtype: DT_INT32
        tensor_shape {
        }
        int_val: 1
      }
    }
  }
}
node {
  name: "u_net/conv3_1/summaries_1/range/start"
  op: "Const"
  attr {
    key: "dtype"
    value {
      type: DT_INT32
    }
  }
  attr {
    key: "value"
    value {
      tensor {
        dtype: DT_INT32
        tensor_shape {
        }
        int_val: 0
      }
    }
  }
}
node {
  name: "u_net/conv3_1/summaries_1/range/delta"
  op: "Const"
  attr {
    key: "dtype"
    value {
      type: DT_INT32
    }
  }
  attr {
    key: "value"
    value {
      tensor {
        dtype: DT_INT32
        tensor_shape {
        }
        int_val: 1
      }
    }
  }
}
node {
  name: "u_net/conv3_1/summaries_1/range"
  op: "Range"
  input: "u_net/conv3_1/summaries_1/range/start"
  input: "u_net/conv3_1/summaries_1/Rank"
  input: "u_net/conv3_1/summaries_1/range/delta"
  attr {
    key: "Tidx"
    value {
      type: DT_INT32
    }
  }
}
node {
  name: "u_net/conv3_1/summaries_1/Mean"
  op: "Mean"
  input: "u_net/conv3_1/b_conv2d/read"
  input: "u_net/conv3_1/summaries_1/range"
  attr {
    key: "T"
    value {
      type: DT_FLOAT
    }
  }
  attr {
    key: "Tidx"
    value {
      type: DT_INT32
    }
  }
  attr {
    key: "keep_dims"
    value {
      b: false
    }
  }
}
node {
  name: "u_net/conv3_1/summaries_1/mean/Biases/tags"
  op: "Const"
  attr {
    key: "dtype"
    value {
      type: DT_STRING
    }
  }
  attr {
    key: "value"
    value {
      tensor {
        dtype: DT_STRING
        tensor_shape {
        }
        string_val: "u_net/conv3_1/summaries_1/mean/Biases"
      }
    }
  }
}
node {
  name: "u_net/conv3_1/summaries_1/mean/Biases"
  op: "ScalarSummary"
  input: "u_net/conv3_1/summaries_1/mean/Biases/tags"
  input: "u_net/conv3_1/summaries_1/Mean"
  attr {
    key: "T"
    value {
      type: DT_FLOAT
    }
  }
}
node {
  name: "u_net/conv3_1/summaries_1/stddev/sub"
  op: "Sub"
  input: "u_net/conv3_1/b_conv2d/read"
  input: "u_net/conv3_1/summaries_1/Mean"
  attr {
    key: "T"
    value {
      type: DT_FLOAT
    }
  }
}
node {
  name: "u_net/conv3_1/summaries_1/stddev/Square"
  op: "Square"
  input: "u_net/conv3_1/summaries_1/stddev/sub"
  attr {
    key: "T"
    value {
      type: DT_FLOAT
    }
  }
}
node {
  name: "u_net/conv3_1/summaries_1/stddev/Const"
  op: "Const"
  attr {
    key: "dtype"
    value {
      type: DT_INT32
    }
  }
  attr {
    key: "value"
    value {
      tensor {
        dtype: DT_INT32
        tensor_shape {
          dim {
            size: 1
          }
        }
        int_val: 0
      }
    }
  }
}
node {
  name: "u_net/conv3_1/summaries_1/stddev/Sum"
  op: "Sum"
  input: "u_net/conv3_1/summaries_1/stddev/Square"
  input: "u_net/conv3_1/summaries_1/stddev/Const"
  attr {
    key: "T"
    value {
      type: DT_FLOAT
    }
  }
  attr {
    key: "Tidx"
    value {
      type: DT_INT32
    }
  }
  attr {
    key: "keep_dims"
    value {
      b: false
    }
  }
}
node {
  name: "u_net/conv3_1/summaries_1/stddev/Sqrt"
  op: "Sqrt"
  input: "u_net/conv3_1/summaries_1/stddev/Sum"
  attr {
    key: "T"
    value {
      type: DT_FLOAT
    }
  }
}
node {
  name: "u_net/conv3_1/summaries_1/sttdev/Biases/tags"
  op: "Const"
  attr {
    key: "dtype"
    value {
      type: DT_STRING
    }
  }
  attr {
    key: "value"
    value {
      tensor {
        dtype: DT_STRING
        tensor_shape {
        }
        string_val: "u_net/conv3_1/summaries_1/sttdev/Biases"
      }
    }
  }
}
node {
  name: "u_net/conv3_1/summaries_1/sttdev/Biases"
  op: "ScalarSummary"
  input: "u_net/conv3_1/summaries_1/sttdev/Biases/tags"
  input: "u_net/conv3_1/summaries_1/stddev/Sqrt"
  attr {
    key: "T"
    value {
      type: DT_FLOAT
    }
  }
}
node {
  name: "u_net/conv3_1/summaries_1/Rank_1"
  op: "Const"
  attr {
    key: "dtype"
    value {
      type: DT_INT32
    }
  }
  attr {
    key: "value"
    value {
      tensor {
        dtype: DT_INT32
        tensor_shape {
        }
        int_val: 1
      }
    }
  }
}
node {
  name: "u_net/conv3_1/summaries_1/range_1/start"
  op: "Const"
  attr {
    key: "dtype"
    value {
      type: DT_INT32
    }
  }
  attr {
    key: "value"
    value {
      tensor {
        dtype: DT_INT32
        tensor_shape {
        }
        int_val: 0
      }
    }
  }
}
node {
  name: "u_net/conv3_1/summaries_1/range_1/delta"
  op: "Const"
  attr {
    key: "dtype"
    value {
      type: DT_INT32
    }
  }
  attr {
    key: "value"
    value {
      tensor {
        dtype: DT_INT32
        tensor_shape {
        }
        int_val: 1
      }
    }
  }
}
node {
  name: "u_net/conv3_1/summaries_1/range_1"
  op: "Range"
  input: "u_net/conv3_1/summaries_1/range_1/start"
  input: "u_net/conv3_1/summaries_1/Rank_1"
  input: "u_net/conv3_1/summaries_1/range_1/delta"
  attr {
    key: "Tidx"
    value {
      type: DT_INT32
    }
  }
}
node {
  name: "u_net/conv3_1/summaries_1/Max"
  op: "Max"
  input: "u_net/conv3_1/b_conv2d/read"
  input: "u_net/conv3_1/summaries_1/range_1"
  attr {
    key: "T"
    value {
      type: DT_FLOAT
    }
  }
  attr {
    key: "Tidx"
    value {
      type: DT_INT32
    }
  }
  attr {
    key: "keep_dims"
    value {
      b: false
    }
  }
}
node {
  name: "u_net/conv3_1/summaries_1/max/Biases/tags"
  op: "Const"
  attr {
    key: "dtype"
    value {
      type: DT_STRING
    }
  }
  attr {
    key: "value"
    value {
      tensor {
        dtype: DT_STRING
        tensor_shape {
        }
        string_val: "u_net/conv3_1/summaries_1/max/Biases"
      }
    }
  }
}
node {
  name: "u_net/conv3_1/summaries_1/max/Biases"
  op: "ScalarSummary"
  input: "u_net/conv3_1/summaries_1/max/Biases/tags"
  input: "u_net/conv3_1/summaries_1/Max"
  attr {
    key: "T"
    value {
      type: DT_FLOAT
    }
  }
}
node {
  name: "u_net/conv3_1/summaries_1/Rank_2"
  op: "Const"
  attr {
    key: "dtype"
    value {
      type: DT_INT32
    }
  }
  attr {
    key: "value"
    value {
      tensor {
        dtype: DT_INT32
        tensor_shape {
        }
        int_val: 1
      }
    }
  }
}
node {
  name: "u_net/conv3_1/summaries_1/range_2/start"
  op: "Const"
  attr {
    key: "dtype"
    value {
      type: DT_INT32
    }
  }
  attr {
    key: "value"
    value {
      tensor {
        dtype: DT_INT32
        tensor_shape {
        }
        int_val: 0
      }
    }
  }
}
node {
  name: "u_net/conv3_1/summaries_1/range_2/delta"
  op: "Const"
  attr {
    key: "dtype"
    value {
      type: DT_INT32
    }
  }
  attr {
    key: "value"
    value {
      tensor {
        dtype: DT_INT32
        tensor_shape {
        }
        int_val: 1
      }
    }
  }
}
node {
  name: "u_net/conv3_1/summaries_1/range_2"
  op: "Range"
  input: "u_net/conv3_1/summaries_1/range_2/start"
  input: "u_net/conv3_1/summaries_1/Rank_2"
  input: "u_net/conv3_1/summaries_1/range_2/delta"
  attr {
    key: "Tidx"
    value {
      type: DT_INT32
    }
  }
}
node {
  name: "u_net/conv3_1/summaries_1/Min"
  op: "Min"
  input: "u_net/conv3_1/b_conv2d/read"
  input: "u_net/conv3_1/summaries_1/range_2"
  attr {
    key: "T"
    value {
      type: DT_FLOAT
    }
  }
  attr {
    key: "Tidx"
    value {
      type: DT_INT32
    }
  }
  attr {
    key: "keep_dims"
    value {
      b: false
    }
  }
}
node {
  name: "u_net/conv3_1/summaries_1/min/Biases/tags"
  op: "Const"
  attr {
    key: "dtype"
    value {
      type: DT_STRING
    }
  }
  attr {
    key: "value"
    value {
      tensor {
        dtype: DT_STRING
        tensor_shape {
        }
        string_val: "u_net/conv3_1/summaries_1/min/Biases"
      }
    }
  }
}
node {
  name: "u_net/conv3_1/summaries_1/min/Biases"
  op: "ScalarSummary"
  input: "u_net/conv3_1/summaries_1/min/Biases/tags"
  input: "u_net/conv3_1/summaries_1/Min"
  attr {
    key: "T"
    value {
      type: DT_FLOAT
    }
  }
}
node {
  name: "u_net/conv3_1/Conv2D"
  op: "Conv2D"
  input: "u_net/pool2"
  input: "u_net/conv3_1/W_conv2d/read"
  attr {
    key: "T"
    value {
      type: DT_FLOAT
    }
  }
  attr {
    key: "data_format"
    value {
      s: "NHWC"
    }
  }
  attr {
    key: "dilations"
    value {
      list {
        i: 1
        i: 1
        i: 1
        i: 1
      }
    }
  }
  attr {
    key: "padding"
    value {
      s: "SAME"
    }
  }
  attr {
    key: "strides"
    value {
      list {
        i: 1
        i: 1
        i: 1
        i: 1
      }
    }
  }
  attr {
    key: "use_cudnn_on_gpu"
    value {
      b: true
    }
  }
}
node {
  name: "u_net/conv3_1/add"
  op: "Add"
  input: "u_net/conv3_1/Conv2D"
  input: "u_net/conv3_1/b_conv2d/read"
  attr {
    key: "T"
    value {
      type: DT_FLOAT
    }
  }
}
node {
  name: "u_net/conv3_1/Relu"
  op: "Relu"
  input: "u_net/conv3_1/add"
  attr {
    key: "T"
    value {
      type: DT_FLOAT
    }
  }
}
node {
  name: "u_net/conv3_2/W_conv2d/Initializer/truncated_normal/shape"
  op: "Const"
  attr {
    key: "_class"
    value {
      list {
        s: "loc:@u_net/conv3_2/W_conv2d"
      }
    }
  }
  attr {
    key: "dtype"
    value {
      type: DT_INT32
    }
  }
  attr {
    key: "value"
    value {
      tensor {
        dtype: DT_INT32
        tensor_shape {
          dim {
            size: 4
          }
        }
        tensor_content: "\003\000\000\000\003\000\000\000@\000\000\000@\000\000\000"
      }
    }
  }
}
node {
  name: "u_net/conv3_2/W_conv2d/Initializer/truncated_normal/mean"
  op: "Const"
  attr {
    key: "_class"
    value {
      list {
        s: "loc:@u_net/conv3_2/W_conv2d"
      }
    }
  }
  attr {
    key: "dtype"
    value {
      type: DT_FLOAT
    }
  }
  attr {
    key: "value"
    value {
      tensor {
        dtype: DT_FLOAT
        tensor_shape {
        }
        float_val: 0.0
      }
    }
  }
}
node {
  name: "u_net/conv3_2/W_conv2d/Initializer/truncated_normal/stddev"
  op: "Const"
  attr {
    key: "_class"
…
    key: "container"
    value {
      s: ""
    }
  }
  attr {
    key: "dataset_factory"
    value {
      func {
        name: "_make_dataset_5Q1aJSJwtWQ"
      }
    }
  }
  attr {
    key: "output_shapes"
    value {
      list {
        shape {
          dim {
            size: -1
          }
          dim {
            size: 384
          }
          dim {
            size: 324
          }
          dim {
            size: 3
          }
        }
        shape {
          dim {
            size: -1
          }
          dim {
            size: 384
          }
          dim {
            size: 324
          }
          dim {
            size: 3
          }
        }
      }
    }
  }
  attr {
    key: "output_types"
    value {
      list {
        type: DT_FLOAT
        type: DT_FLOAT
      }
    }
  }
  attr {
    key: "shared_name"
    value {
      s: ""
    }
  }
}
node {
  name: "IteratorToStringHandle_2"
  op: "IteratorToStringHandle"
  input: "OneShotIterator_2"
}
node {
  name: "IteratorGetNext_2"
  op: "IteratorGetNext"
  input: "OneShotIterator_2"
  attr {
    key: "output_shapes"
    value {
      list {
        shape {
          dim {
            size: -1
          }
          dim {
            size: 384
          }
          dim {
            size: 324
          }
          dim {
            size: 3
          }
        }
        shape {
          dim {
            size: -1
          }
          dim {
            size: 384
          }
          dim {
            size: 324
          }
          dim {
            size: 3
          }
        }
      }
    }
  }
  attr {
    key: "output_types"
    value {
      list {
        type: DT_FLOAT
        type: DT_FLOAT
      }
    }
  }
}
node {
  name: "init"
  op: "NoOp"
  input: "^beta1_power/Assign"
  input: "^beta2_power/Assign"
  input: "^u_net/bn1/beta/Adam/Assign"
  input: "^u_net/bn1/beta/Adam_1/Assign"
  input: "^u_net/bn1/beta/Assign"
  input: "^u_net/bn1/gamma/Adam/Assign"
  input: "^u_net/bn1/gamma/Adam_1/Assign"
  input: "^u_net/bn1/gamma/Assign"
  input: "^u_net/bn1/moving_mean/Assign"
  input: "^u_net/bn1/moving_variance/Assign"
  input: "^u_net/bn2/beta/Adam/Assign"
  input: "^u_net/bn2/beta/Adam_1/Assign"
  input: "^u_net/bn2/beta/Assign"
  input: "^u_net/bn2/gamma/Adam/Assign"
  input: "^u_net/bn2/gamma/Adam_1/Assign"
  input: "^u_net/bn2/gamma/Assign"
  input: "^u_net/bn2/moving_mean/Assign"
  input: "^u_net/bn2/moving_variance/Assign"
  input: "^u_net/bn3/beta/Adam/Assign"
  input: "^u_net/bn3/beta/Adam_1/Assign"
  input: "^u_net/bn3/beta/Assign"
  input: "^u_net/bn3/gamma/Adam/Assign"
  input: "^u_net/bn3/gamma/Adam_1/Assign"
  input: "^u_net/bn3/gamma/Assign"
  input: "^u_net/bn3/moving_mean/Assign"
  input: "^u_net/bn3/moving_variance/Assign"
  input: "^u_net/bn4/beta/Adam/Assign"
  input: "^u_net/bn4/beta/Adam_1/Assign"
  input: "^u_net/bn4/beta/Assign"
  input: "^u_net/bn4/gamma/Adam/Assign"
  input: "^u_net/bn4/gamma/Adam_1/Assign"
  input: "^u_net/bn4/gamma/Assign"
  input: "^u_net/bn4/moving_mean/Assign"
  input: "^u_net/bn4/moving_variance/Assign"
  input: "^u_net/bn5/beta/Adam/Assign"
  input: "^u_net/bn5/beta/Adam_1/Assign"
  input: "^u_net/bn5/beta/Assign"
  input: "^u_net/bn5/gamma/Adam/Assign"
  input: "^u_net/bn5/gamma/Adam_1/Assign"
  input: "^u_net/bn5/gamma/Assign"
  input: "^u_net/bn5/moving_mean/Assign"
  input: "^u_net/bn5/moving_variance/Assign"
  input: "^u_net/conv1_1/W_conv2d/Adam/Assign"
  input: "^u_net/conv1_1/W_conv2d/Adam_1/Assign"
  input: "^u_net/conv1_1/W_conv2d/Assign"
  input: "^u_net/conv1_1/b_conv2d/Adam/Assign"
  input: "^u_net/conv1_1/b_conv2d/Adam_1/Assign"
  input: "^u_net/conv1_1/b_conv2d/Assign"
  input: "^u_net/conv1_2/W_conv2d/Adam/Assign"
  input: "^u_net/conv1_2/W_conv2d/Adam_1/Assign"
  input: "^u_net/conv1_2/W_conv2d/Assign"
  input: "^u_net/conv1_2/b_conv2d/Adam/Assign"
  input: "^u_net/conv1_2/b_conv2d/Adam_1/Assign"
  input: "^u_net/conv1_2/b_conv2d/Assign"
  input: "^u_net/conv2_1/W_conv2d/Adam/Assign"
  input: "^u_net/conv2_1/W_conv2d/Adam_1/Assign"
  input: "^u_net/conv2_1/W_conv2d/Assign"
  input: "^u_net/conv2_1/b_conv2d/Adam/Assign"
  input: "^u_net/conv2_1/b_conv2d/Adam_1/Assign"
  input: "^u_net/conv2_1/b_conv2d/Assign"
  input: "^u_net/conv2_2/W_conv2d/Adam/Assign"
  input: "^u_net/conv2_2/W_conv2d/Adam_1/Assign"
  input: "^u_net/conv2_2/W_conv2d/Assign"
  input: "^u_net/conv2_2/b_conv2d/Adam/Assign"
  input: "^u_net/conv2_2/b_conv2d/Adam_1/Assign"
  input: "^u_net/conv2_2/b_conv2d/Assign"
  input: "^u_net/conv3_1/W_conv2d/Adam/Assign"
  input: "^u_net/conv3_1/W_conv2d/Adam_1/Assign"
  input: "^u_net/conv3_1/W_conv2d/Assign"
  input: "^u_net/conv3_1/b_conv2d/Adam/Assign"
  input: "^u_net/conv3_1/b_conv2d/Adam_1/Assign"
  input: "^u_net/conv3_1/b_conv2d/Assign"
  input: "^u_net/conv3_2/W_conv2d/Adam/Assign"
  input: "^u_net/conv3_2/W_conv2d/Adam_1/Assign"
  input: "^u_net/conv3_2/W_conv2d/Assign"
  input: "^u_net/conv3_2/b_conv2d/Adam/Assign"
  input: "^u_net/conv3_2/b_conv2d/Adam_1/Assign"
  input: "^u_net/conv3_2/b_conv2d/Assign"
  input: "^u_net/conv4_1/W_conv2d/Adam/Assign"
  input: "^u_net/conv4_1/W_conv2d/Adam_1/Assign"
  input: "^u_net/conv4_1/W_conv2d/Assign"
  input: "^u_net/conv4_1/b_conv2d/Adam/Assign"
  input: "^u_net/conv4_1/b_conv2d/Adam_1/Assign"
  input: "^u_net/conv4_1/b_conv2d/Assign"
  input: "^u_net/conv4_2/W_conv2d/Adam/Assign"
  input: "^u_net/conv4_2/W_conv2d/Adam_1/Assign"
  input: "^u_net/conv4_2/W_conv2d/Assign"
  input: "^u_net/conv4_2/b_conv2d/Adam/Assign"
  input: "^u_net/conv4_2/b_conv2d/Adam_1/Assign"
  input: "^u_net/conv4_2/b_conv2d/Assign"
  input: "^u_net/conv5_1/W_conv2d/Adam/Assign"
  input: "^u_net/conv5_1/W_conv2d/Adam_1/Assign"
  input: "^u_net/conv5_1/W_conv2d/Assign"
  input: "^u_net/conv5_1/b_conv2d/Adam/Assign"
  input: "^u_net/conv5_1/b_conv2d/Adam_1/Assign"
  input: "^u_net/conv5_1/b_conv2d/Assign"
  input: "^u_net/conv5_2/W_conv2d/Adam/Assign"
  input: "^u_net/conv5_2/W_conv2d/Adam_1/Assign"
  input: "^u_net/conv5_2/W_conv2d/Assign"
  input: "^u_net/conv5_2/b_conv2d/Adam/Assign"
  input: "^u_net/conv5_2/b_conv2d/Adam_1/Assign"
  input: "^u_net/conv5_2/b_conv2d/Assign"
  input: "^u_net/deconv1/W_deconv2d/Adam/Assign"
  input: "^u_net/deconv1/W_deconv2d/Adam_1/Assign"
  input: "^u_net/deconv1/W_deconv2d/Assign"
  input: "^u_net/deconv1/b_deconv2d/Adam/Assign"
  input: "^u_net/deconv1/b_deconv2d/Adam_1/Assign"
  input: "^u_net/deconv1/b_deconv2d/Assign"
  input: "^u_net/deconv2/W_deconv2d/Adam/Assign"
  input: "^u_net/deconv2/W_deconv2d/Adam_1/Assign"
  input: "^u_net/deconv2/W_deconv2d/Assign"
  input: "^u_net/deconv2/b_deconv2d/Adam/Assign"
  input: "^u_net/deconv2/b_deconv2d/Adam_1/Assign"
  input: "^u_net/deconv2/b_deconv2d/Assign"
  input: "^u_net/deconv3/W_deconv2d/Adam/Assign"
  input: "^u_net/deconv3/W_deconv2d/Adam_1/Assign"
  input: "^u_net/deconv3/W_deconv2d/Assign"
  input: "^u_net/deconv3/b_deconv2d/Adam/Assign"
  input: "^u_net/deconv3/b_deconv2d/Adam_1/Assign"
  input: "^u_net/deconv3/b_deconv2d/Assign"
  input: "^u_net/deconv4/W_deconv2d/Adam/Assign"
  input: "^u_net/deconv4/W_deconv2d/Adam_1/Assign"
  input: "^u_net/deconv4/W_deconv2d/Assign"
  input: "^u_net/deconv4/b_deconv2d/Adam/Assign"
  input: "^u_net/deconv4/b_deconv2d/Adam_1/Assign"
  input: "^u_net/deconv4/b_deconv2d/Assign"
  input: "^u_net/uconv1/W_conv2d/Adam/Assign"
  input: "^u_net/uconv1/W_conv2d/Adam_1/Assign"
  input: "^u_net/uconv1/W_conv2d/Assign"
  input: "^u_net/uconv1/b_conv2d/Adam/Assign"
  input: "^u_net/uconv1/b_conv2d/Adam_1/Assign"
  input: "^u_net/uconv1/b_conv2d/Assign"
  input: "^u_net/uconv1_1/W_conv2d/Adam/Assign"
  input: "^u_net/uconv1_1/W_conv2d/Adam_1/Assign"
  input: "^u_net/uconv1_1/W_conv2d/Assign"
  input: "^u_net/uconv1_1/b_conv2d/Adam/Assign"
  input: "^u_net/uconv1_1/b_conv2d/Adam_1/Assign"
  input: "^u_net/uconv1_1/b_conv2d/Assign"
  input: "^u_net/uconv1_2/W_conv2d/Adam/Assign"
  input: "^u_net/uconv1_2/W_conv2d/Adam_1/Assign"
  input: "^u_net/uconv1_2/W_conv2d/Assign"
  input: "^u_net/uconv1_2/b_conv2d/Adam/Assign"
  input: "^u_net/uconv1_2/b_conv2d/Adam_1/Assign"
  input: "^u_net/uconv1_2/b_conv2d/Assign"
  input: "^u_net/uconv2_1/W_conv2d/Adam/Assign"
  input: "^u_net/uconv2_1/W_conv2d/Adam_1/Assign"
  input: "^u_net/uconv2_1/W_conv2d/Assign"
  input: "^u_net/uconv2_1/b_conv2d/Adam/Assign"
  input: "^u_net/uconv2_1/b_conv2d/Adam_1/Assign"
  input: "^u_net/uconv2_1/b_conv2d/Assign"
  input: "^u_net/uconv2_2/W_conv2d/Adam/Assign"
  input: "^u_net/uconv2_2/W_conv2d/Adam_1/Assign"
  input: "^u_net/uconv2_2/W_conv2d/Assign"
  input: "^u_net/uconv2_2/b_conv2d/Adam/Assign"
  input: "^u_net/uconv2_2/b_conv2d/Adam_1/Assign"
  input: "^u_net/uconv2_2/b_conv2d/Assign"
  input: "^u_net/uconv3_1/W_conv2d/Adam/Assign"
  input: "^u_net/uconv3_1/W_conv2d/Adam_1/Assign"
  input: "^u_net/uconv3_1/W_conv2d/Assign"
  input: "^u_net/uconv3_1/b_conv2d/Adam/Assign"
  input: "^u_net/uconv3_1/b_conv2d/Adam_1/Assign"
  input: "^u_net/uconv3_1/b_conv2d/Assign"
  input: "^u_net/uconv3_2/W_conv2d/Adam/Assign"
  input: "^u_net/uconv3_2/W_conv2d/Adam_1/Assign"
  input: "^u_net/uconv3_2/W_conv2d/Assign"
  input: "^u_net/uconv3_2/b_conv2d/Adam/Assign"
  input: "^u_net/uconv3_2/b_conv2d/Adam_1/Assign"
  input: "^u_net/uconv3_2/b_conv2d/Assign"
  input: "^u_net/uconv4_1/W_conv2d/Adam/Assign"
  input: "^u_net/uconv4_1/W_conv2d/Adam_1/Assign"
  input: "^u_net/uconv4_1/W_conv2d/Assign"
  input: "^u_net/uconv4_1/b_conv2d/Adam/Assign"
  input: "^u_net/uconv4_1/b_conv2d/Adam_1/Assign"
  input: "^u_net/uconv4_1/b_conv2d/Assign"
  input: "^u_net/uconv4_2/W_conv2d/Adam/Assign"
  input: "^u_net/uconv4_2/W_conv2d/Adam_1/Assign"
  input: "^u_net/uconv4_2/W_conv2d/Assign"
  input: "^u_net/uconv4_2/b_conv2d/Adam/Assign"
  input: "^u_net/uconv4_2/b_conv2d/Adam_1/Assign"
  input: "^u_net/uconv4_2/b_conv2d/Assign"
  input: "^u_net/ucov_bn1_1/beta/Adam/Assign"
  input: "^u_net/ucov_bn1_1/beta/Adam_1/Assign"
  input: "^u_net/ucov_bn1_1/beta/Assign"
  input: "^u_net/ucov_bn1_1/gamma/Adam/Assign"
  input: "^u_net/ucov_bn1_1/gamma/Adam_1/Assign"
  input: "^u_net/ucov_bn1_1/gamma/Assign"
  input: "^u_net/ucov_bn1_1/moving_mean/Assign"
  input: "^u_net/ucov_bn1_1/moving_variance/Assign"
  input: "^u_net/ucov_bn1_2/beta/Adam/Assign"
  input: "^u_net/ucov_bn1_2/beta/Adam_1/Assign"
  input: "^u_net/ucov_bn1_2/beta/Assign"
  input: "^u_net/ucov_bn1_2/gamma/Adam/Assign"
  input: "^u_net/ucov_bn1_2/gamma/Adam_1/Assign"
  input: "^u_net/ucov_bn1_2/gamma/Assign"
  input: "^u_net/ucov_bn1_2/moving_mean/Assign"
  input: "^u_net/ucov_bn1_2/moving_variance/Assign"
  input: "^u_net/ucov_bn2_1/beta/Adam/Assign"
  input: "^u_net/ucov_bn2_1/beta/Adam_1/Assign"
  input: "^u_net/ucov_bn2_1/beta/Assign"
  input: "^u_net/ucov_bn2_1/gamma/Adam/Assign"
  input: "^u_net/ucov_bn2_1/gamma/Adam_1/Assign"
  input: "^u_net/ucov_bn2_1/gamma/Assign"
  input: "^u_net/ucov_bn2_1/moving_mean/Assign"
  input: "^u_net/ucov_bn2_1/moving_variance/Assign"
  input: "^u_net/ucov_bn2_2/beta/Adam/Assign"
  input: "^u_net/ucov_bn2_2/beta/Adam_1/Assign"
  input: "^u_net/ucov_bn2_2/beta/Assign"
  input: "^u_net/ucov_bn2_2/gamma/Adam/Assign"
  input: "^u_net/ucov_bn2_2/gamma/Adam_1/Assign"
  input: "^u_net/ucov_bn2_2/gamma/Assign"
  input: "^u_net/ucov_bn2_2/moving_mean/Assign"
  input: "^u_net/ucov_bn2_2/moving_variance/Assign"
  input: "^u_net/ucov_bn3_1/beta/Adam/Assign"
  input: "^u_net/ucov_bn3_1/beta/Adam_1/Assign"
  input: "^u_net/ucov_bn3_1/beta/Assign"
  input: "^u_net/ucov_bn3_1/gamma/Adam/Assign"
  input: "^u_net/ucov_bn3_1/gamma/Adam_1/Assign"
  input: "^u_net/ucov_bn3_1/gamma/Assign"
  input: "^u_net/ucov_bn3_1/moving_mean/Assign"
  input: "^u_net/ucov_bn3_1/moving_variance/Assign"
  input: "^u_net/ucov_bn3_2/beta/Adam/Assign"
  input: "^u_net/ucov_bn3_2/beta/Adam_1/Assign"
  input: "^u_net/ucov_bn3_2/beta/Assign"
  input: "^u_net/ucov_bn3_2/gamma/Adam/Assign"
  input: "^u_net/ucov_bn3_2/gamma/Adam_1/Assign"
  input: "^u_net/ucov_bn3_2/gamma/Assign"
  input: "^u_net/ucov_bn3_2/moving_mean/Assign"
  input: "^u_net/ucov_bn3_2/moving_variance/Assign"
  input: "^u_net/ucov_bn4_1/beta/Adam/Assign"
  input: "^u_net/ucov_bn4_1/beta/Adam_1/Assign"
  input: "^u_net/ucov_bn4_1/beta/Assign"
  input: "^u_net/ucov_bn4_1/gamma/Adam/Assign"
  input: "^u_net/ucov_bn4_1/gamma/Adam_1/Assign"
  input: "^u_net/ucov_bn4_1/gamma/Assign"
  input: "^u_net/ucov_bn4_1/moving_mean/Assign"
  input: "^u_net/ucov_bn4_1/moving_variance/Assign"
  input: "^u_net/ucov_bn4_2/beta/Adam/Assign"
  input: "^u_net/ucov_bn4_2/beta/Adam_1/Assign"
  input: "^u_net/ucov_bn4_2/beta/Assign"
  input: "^u_net/ucov_bn4_2/gamma/Adam/Assign"
  input: "^u_net/ucov_bn4_2/gamma/Adam_1/Assign"
  input: "^u_net/ucov_bn4_2/gamma/Assign"
  input: "^u_net/ucov_bn4_2/moving_mean/Assign"
  input: "^u_net/ucov_bn4_2/moving_variance/Assign"
}
library {
  function {
    signature {
      name: "_make_dataset_7GyAmW0uUpA"
      output_arg {
        name: "batchdatasetv2"
        type: DT_VARIANT
      }
      is_stateful: true
    }
    node_def {
      name: "TensorSliceDataset/Const_5"
      op: "Const"
      attr {
        key: "dtype"
        value {
          type: DT_STRING
        }
      }
      attr {
        key: "value"
        value {
          tensor {
            dtype: DT_STRING
            tensor_shape {
            }
            string_val: "Ph_3ch_accel_5_4_zero_padding_Data11.tfrecord"
          }
        }
      }
    }
    node_def {
      name: "TensorSliceDataset/flat_filenames_1/shape"
      op: "Const"
      attr {
        key: "dtype"
        value {
          type: DT_INT32
        }
      }
      attr {
        key: "value"
        value {
          tensor {
            dtype: DT_INT32
            tensor_shape {
              dim {
                size: 1
              }
            }
            int_val: -1
          }
        }
      }
    }
    node_def {
      name: "TensorSliceDataset/flat_filenames_1"
      op: "Reshape"
      input: "TensorSliceDataset/Const_5:output:0"
      input: "TensorSliceDataset/flat_filenames_1/shape:output:0"
      attr {
        key: "T"
        value {
          type: DT_STRING
        }
      }
      attr {
        key: "Tshape"
        value {
          type: DT_INT32
        }
      }
    }
    node_def {
      name: "TensorSliceDataset"
      op: "TensorSliceDataset"
      input: "TensorSliceDataset/flat_filenames_1:output:0"
      attr {
        key: "Toutput_types"
        value {
          list {
            type: DT_STRING
          }
        }
      }
      attr {
        key: "output_shapes"
        value {
          list {
            shape {
            }
          }
        }
      }
    }
    node_def {
      name: "FlatMapDataset"
      op: "FlatMapDataset"
      input: "TensorSliceDataset:handle:0"
      attr {
        key: "Targuments"
        value {
          list {
          }
        }
      }
      attr {
        key: "f"
        value {
          func {
            name: "tf_data_structured_function_wrapper_Qky8TA5ITQU"
          }
        }
      }
      attr {
        key: "output_shapes"
        value {
          list {
            shape {
            }
          }
        }
      }
      attr {
        key: "output_types"
        value {
          list {
            type: DT_STRING
          }
        }
      }
    }
    node_def {
      name: "MapDataset"
      op: "MapDataset"
      input: "FlatMapDataset:handle:0"
      attr {
        key: "Targuments"
        value {
          list {
          }
        }
      }
      attr {
        key: "f"
        value {
          func {
            name: "tf_data_structured_function_wrapper_qDW5J1SGyTE"
          }
        }
      }
      attr {
        key: "output_shapes"
        value {
          list {
            shape {
              dim {
                size: 384
              }
              dim {
                size: 324
              }
              dim {
                size: 3
              }
            }
            shape {
              dim {
                size: 384
              }
              dim {
                size: 324
              }
              dim {
                size: 3
              }
            }
          }
        }
      }
      attr {
        key: "output_types"
        value {
          list {
            type: DT_FLOAT
            type: DT_FLOAT
          }
        }
      }
      attr {
        key: "use_inter_op_parallelism"
        value {
          b: true
        }
      }
    }
    node_def {
      name: "RepeatDataset/count_1"
      op: "Const"
      attr {
        key: "dtype"
        value {
          type: DT_INT64
        }
      }
      attr {
        key: "value"
        value {
          tensor {
            dtype: DT_INT64
            tensor_shape {
            }
            int64_val: -1
          }
        }
      }
    }
    node_def {
      name: "RepeatDataset"
      op: "RepeatDataset"
      input: "MapDataset:handle:0"
      input: "RepeatDataset/count_1:output:0"
      attr {
        key: "output_shapes"
        value {
          list {
            shape {
              dim {
                size: 384
              }
              dim {
                size: 324
              }
              dim {
                size: 3
              }
            }
            shape {
              dim {
                size: 384
              }
              dim {
                size: 324
              }
              dim {
                size: 3
              }
            }
          }
        }
      }
      attr {
        key: "output_types"
        value {
          list {
            type: DT_FLOAT
            type: DT_FLOAT
          }
        }
      }
    }
    node_def {
      name: "ShuffleDataset/buffer_size_1"
      op: "Const"
      attr {
        key: "dtype"
        value {
          type: DT_INT64
        }
      }
      attr {
        key: "value"
        value {
          tensor {
            dtype: DT_INT64
            tensor_shape {
            }
            int64_val: 1
          }
        }
      }
    }
    node_def {
      name: "ShuffleDataset/seed_1"
      op: "Const"
      attr {
        key: "dtype"
        value {
          type: DT_INT64
        }
      }
      attr {
        key: "value"
        value {
          tensor {
            dtype: DT_INT64
            tensor_shape {
            }
            int64_val: 0
          }
        }
      }
    }
    node_def {
      name: "ShuffleDataset/seed2_1"
      op: "Const"
      attr {
        key: "dtype"
        value {
          type: DT_INT64
        }
      }
      attr {
        key: "value"
        value {
          tensor {
            dtype: DT_INT64
            tensor_shape {
            }
            int64_val: 0
          }
        }
      }
    }
    node_def {
      name: "ShuffleDataset"
      op: "ShuffleDataset"
      input: "RepeatDataset:handle:0"
      input: "ShuffleDataset/buffer_size_1:output:0"
      input: "ShuffleDataset/seed_1:output:0"
      input: "ShuffleDataset/seed2_1:output:0"
      attr {
        key: "output_shapes"
        value {
          list {
            shape {
              dim {
                size: 384
              }
              dim {
                size: 324
              }
              dim {
                size: 3
              }
            }
            shape {
              dim {
                size: 384
              }
              dim {
                size: 324
              }
              dim {
                size: 3
              }
            }
          }
        }
      }
      attr {
        key: "output_types"
        value {
          list {
            type: DT_FLOAT
            type: DT_FLOAT
          }
        }
      }
      attr {
        key: "reshuffle_each_iteration"
        value {
          b: true
        }
      }
    }
    node_def {
      name: "BatchDatasetV2/batch_size_1"
      op: "Const"
      attr {
        key: "dtype"
        value {
          type: DT_INT64
        }
      }
      attr {
        key: "value"
        value {
          tensor {
            dtype: DT_INT64
            tensor_shape {
            }
            int64_val: 1
          }
        }
      }
    }
    node_def {
      name: "BatchDatasetV2/drop_remainder_1"
      op: "Const"
      attr {
        key: "dtype"
        value {
          type: DT_BOOL
        }
      }
      attr {
        key: "value"
        value {
          tensor {
            dtype: DT_BOOL
            tensor_shape {
            }
            bool_val: false
          }
        }
      }
    }
    node_def {
      name: "BatchDatasetV2"
      op: "BatchDatasetV2"
      input: "ShuffleDataset:handle:0"
      input: "BatchDatasetV2/batch_size_1:output:0"
      input: "BatchDatasetV2/drop_remainder_1:output:0"
      attr {
        key: "output_shapes"
        value {
          list {
            shape {
              dim {
                size: -1
              }
              dim {
                size: 384
              }
              dim {
                size: 324
              }
              dim {
                size: 3
              }
            }
            shape {
              dim {
                size: -1
              }
              dim {
                size: 384
              }
              dim {
                size: 324
              }
              dim {
                size: 3
              }
            }
          }
        }
      }
      attr {
        key: "output_types"
        value {
          list {
            type: DT_FLOAT
            type: DT_FLOAT
          }
        }
      }
    }
    ret {
      key: "batchdatasetv2"
      value: "BatchDatasetV2:handle:0"
    }
  }
  function {
    signature {
      name: "tf_data_structured_function_wrapper_qDW5J1SGyTE"
      input_arg {
        name: "arg0"
        type: DT_STRING
      }
      output_arg {
        name: "reshape"
        type: DT_FLOAT
      }
      output_arg {
        name: "reshape_1"
        type: DT_FLOAT
      }
      description: "Wrapper for passing nested structures to and from tf.data functions."
    }
    node_def {
      name: "ParseSingleExample/Const"
      op: "Const"
      attr {
        key: "dtype"
        value {
          type: DT_STRING
        }
      }
      attr {
        key: "value"
        value {
          tensor {
            dtype: DT_STRING
            tensor_shape {
              dim {
              }
            }
          }
        }
      }
    }
    node_def {
      name: "ParseSingleExample/Const_1"
      op: "Const"
      attr {
        key: "dtype"
        value {
          type: DT_STRING
        }
      }
      attr {
        key: "value"
        value {
          tensor {
            dtype: DT_STRING
            tensor_shape {
              dim {
              }
            }
          }
        }
      }
    }
    node_def {
      name: "ParseSingleExample/ParseSingleExample"
      op: "ParseSingleExample"
      input: "arg0"
      input: "ParseSingleExample/Const:output:0"
      input: "ParseSingleExample/Const_1:output:0"
      attr {
        key: "Tdense"
        value {
          list {
            type: DT_STRING
            type: DT_STRING
          }
        }
      }
      attr {
        key: "dense_keys"
        value {
          list {
            s: "CompI"
            s: "low_CompI"
          }
        }
      }
      attr {
        key: "dense_shapes"
        value {
          list {
            shape {
            }
            shape {
            }
          }
        }
      }
      attr {
        key: "num_sparse"
        value {
          i: 0
        }
      }
      attr {
        key: "sparse_keys"
        value {
          list {
          }
        }
      }
      attr {
        key: "sparse_types"
        value {
          list {
          }
        }
      }
    }
    node_def {
      name: "DecodeRaw"
      op: "DecodeRaw"
      input: "ParseSingleExample/ParseSingleExample:dense_values:1"
      attr {
        key: "little_endian"
        value {
          b: true
        }
      }
      attr {
        key: "out_type"
        value {
          type: DT_FLOAT
        }
      }
    }
    node_def {
      name: "Reshape/shape"
      op: "Const"
      attr {
        key: "dtype"
        value {
          type: DT_INT32
        }
      }
      attr {
        key: "value"
        value {
          tensor {
            dtype: DT_INT32
            tensor_shape {
              dim {
                size: 3
              }
            }
            tensor_content: "\200\001\000\000D\001\000\000\003\000\000\000"
          }
        }
      }
    }
    node_def {
      name: "Reshape"
      op: "Reshape"
      input: "DecodeRaw:output:0"
      input: "Reshape/shape:output:0"
      attr {
        key: "T"
        value {
          type: DT_FLOAT
        }
      }
      attr {
        key: "Tshape"
        value {
          type: DT_INT32
        }
      }
    }
    node_def {
      name: "DecodeRaw_1"
      op: "DecodeRaw"
      input: "ParseSingleExample/ParseSingleExample:dense_values:0"
      attr {
        key: "little_endian"
        value {
          b: true
        }
      }
      attr {
        key: "out_type"
        value {
          type: DT_FLOAT
        }
      }
    }
    node_def {
      name: "Reshape_1/shape"
      op: "Const"
      attr {
        key: "dtype"
        value {
          type: DT_INT32
        }
      }
      attr {
        key: "value"
        value {
          tensor {
            dtype: DT_INT32
            tensor_shape {
              dim {
                size: 3
              }
            }
            tensor_content: "\200\001\000\000D\001\000\000\003\000\000\000"
          }
        }
      }
    }
    node_def {
      name: "Reshape_1"
      op: "Reshape"
      input: "DecodeRaw_1:output:0"
      input: "Reshape_1/shape:output:0"
      attr {
        key: "T"
        value {
          type: DT_FLOAT
        }
      }
      attr {
        key: "Tshape"
        value {
          type: DT_INT32
        }
      }
    }
    ret {
      key: "reshape"
      value: "Reshape:output:0"
    }
    ret {
      key: "reshape_1"
      value: "Reshape_1:output:0"
    }
  }
  function {
    signature {
      name: "_make_dataset_5Q1aJSJwtWQ"
      output_arg {
        name: "batchdatasetv2"
        type: DT_VARIANT
      }
      is_stateful: true
    }
    node_def {
      name: "TensorSliceDataset/Const_6"
      op: "Const"
      attr {
        key: "dtype"
        value {
          type: DT_STRING
        }
      }
      attr {
        key: "value"
        value {
          tensor {
            dtype: DT_STRING
            tensor_shape {
            }
            string_val: "Ph_3ch_accel_5_4_zero_padding_Data11.tfrecord"
          }
        }
      }
    }
    node_def {
      name: "TensorSliceDataset/flat_filenames_2/shape"
      op: "Const"
      attr {
        key: "dtype"
        value {
          type: DT_INT32
        }
      }
      attr {
        key: "value"
        value {
          tensor {
            dtype: DT_INT32
            tensor_shape {
              dim {
                size: 1
              }
            }
            int_val: -1
          }
        }
      }
    }
    node_def {
      name: "TensorSliceDataset/flat_filenames_2"
      op: "Reshape"
      input: "TensorSliceDataset/Const_6:output:0"
      input: "TensorSliceDataset/flat_filenames_2/shape:output:0"
      attr {
        key: "T"
        value {
          type: DT_STRING
        }
      }
      attr {
        key: "Tshape"
        value {
          type: DT_INT32
        }
      }
    }
    node_def {
      name: "TensorSliceDataset"
      op: "TensorSliceDataset"
      input: "TensorSliceDataset/flat_filenames_2:output:0"
      attr {
        key: "Toutput_types"
        value {
          list {
            type: DT_STRING
          }
        }
      }
      attr {
        key: "output_shapes"
        value {
          list {
            shape {
            }
          }
        }
      }
    }
    node_def {
      name: "FlatMapDataset"
      op: "FlatMapDataset"
      input: "TensorSliceDataset:handle:0"
      attr {
        key: "Targuments"
        value {
          list {
          }
        }
      }
      attr {
        key: "f"
        value {
          func {
            name: "tf_data_structured_function_wrapper_Qky8TA5ITQU"
          }
        }
      }
      attr {
        key: "output_shapes"
        value {
          list {
            shape {
            }
          }
        }
      }
      attr {
        key: "output_types"
        value {
          list {
            type: DT_STRING
          }
        }
      }
    }
    node_def {
      name: "MapDataset"
      op: "MapDataset"
      input: "FlatMapDataset:handle:0"
      attr {
        key: "Targuments"
        value {
          list {
          }
        }
      }
      attr {
        key: "f"
        value {
          func {
            name: "tf_data_structured_function_wrapper_qDW5J1SGyTE"
          }
        }
      }
      attr {
        key: "output_shapes"
        value {
          list {
            shape {
              dim {
                size: 384
              }
              dim {
                size: 324
              }
              dim {
                size: 3
              }
            }
            shape {
              dim {
                size: 384
              }
              dim {
                size: 324
              }
              dim {
                size: 3
              }
            }
          }
        }
      }
      attr {
        key: "output_types"
        value {
          list {
            type: DT_FLOAT
            type: DT_FLOAT
          }
        }
      }
      attr {
        key: "use_inter_op_parallelism"
        value {
          b: true
        }
      }
    }
    node_def {
      name: "RepeatDataset/count_2"
      op: "Const"
      attr {
        key: "dtype"
        value {
          type: DT_INT64
        }
      }
      attr {
        key: "value"
        value {
          tensor {
            dtype: DT_INT64
            tensor_shape {
            }
            int64_val: -1
          }
        }
      }
    }
    node_def {
      name: "RepeatDataset"
      op: "RepeatDataset"
      input: "MapDataset:handle:0"
      input: "RepeatDataset/count_2:output:0"
      attr {
        key: "output_shapes"
        value {
          list {
            shape {
              dim {
                size: 384
              }
              dim {
                size: 324
              }
              dim {
                size: 3
              }
            }
            shape {
              dim {
                size: 384
              }
              dim {
                size: 324
              }
              dim {
                size: 3
              }
            }
          }
        }
      }
      attr {
        key: "output_types"
        value {
          list {
            type: DT_FLOAT
            type: DT_FLOAT
          }
        }
      }
    }
    node_def {
      name: "ShuffleDataset/buffer_size_2"
      op: "Const"
      attr {
        key: "dtype"
        value {
          type: DT_INT64
        }
      }
      attr {
        key: "value"
        value {
          tensor {
            dtype: DT_INT64
            tensor_shape {
            }
            int64_val: 1
          }
        }
      }
    }
    node_def {
      name: "ShuffleDataset/seed_2"
      op: "Const"
      attr {
        key: "dtype"
        value {
          type: DT_INT64
        }
      }
      attr {
        key: "value"
        value {
          tensor {
            dtype: DT_INT64
            tensor_shape {
            }
            int64_val: 0
          }
        }
      }
    }
    node_def {
      name: "ShuffleDataset/seed2_2"
      op: "Const"
      attr {
        key: "dtype"
        value {
          type: DT_INT64
        }
      }
      attr {
        key: "value"
        value {
          tensor {
            dtype: DT_INT64
            tensor_shape {
            }
            int64_val: 0
          }
        }
      }
    }
    node_def {
      name: "ShuffleDataset"
      op: "ShuffleDataset"
      input: "RepeatDataset:handle:0"
      input: "ShuffleDataset/buffer_size_2:output:0"
      input: "ShuffleDataset/seed_2:output:0"
      input: "ShuffleDataset/seed2_2:output:0"
      attr {
        key: "output_shapes"
        value {
          list {
            shape {
              dim {
                size: 384
              }
              dim {
                size: 324
              }
              dim {
                size: 3
              }
            }
            shape {
              dim {
                size: 384
              }
              dim {
                size: 324
              }
              dim {
                size: 3
              }
            }
          }
        }
      }
      attr {
        key: "output_types"
        value {
          list {
            type: DT_FLOAT
            type: DT_FLOAT
          }
        }
      }
      attr {
        key: "reshuffle_each_iteration"
        value {
          b: true
        }
      }
    }
    node_def {
      name: "BatchDatasetV2/batch_size_2"
      op: "Const"
      attr {
        key: "dtype"
        value {
          type: DT_INT64
        }
      }
      attr {
        key: "value"
        value {
          tensor {
            dtype: DT_INT64
            tensor_shape {
            }
            int64_val: 1
          }
        }
      }
    }
    node_def {
      name: "BatchDatasetV2/drop_remainder_2"
      op: "Const"
      attr {
        key: "dtype"
        value {
          type: DT_BOOL
        }
      }
      attr {
        key: "value"
        value {
          tensor {
            dtype: DT_BOOL
            tensor_shape {
            }
            bool_val: false
          }
        }
      }
    }
    node_def {
      name: "BatchDatasetV2"
      op: "BatchDatasetV2"
      input: "ShuffleDataset:handle:0"
      input: "BatchDatasetV2/batch_size_2:output:0"
      input: "BatchDatasetV2/drop_remainder_2:output:0"
      attr {
        key: "output_shapes"
        value {
          list {
            shape {
              dim {
                size: -1
              }
              dim {
                size: 384
              }
              dim {
                size: 324
              }
              dim {
                size: 3
              }
            }
            shape {
              dim {
                size: -1
              }
              dim {
                size: 384
              }
              dim {
                size: 324
              }
              dim {
                size: 3
              }
            }
          }
        }
      }
      attr {
        key: "output_types"
        value {
          list {
            type: DT_FLOAT
            type: DT_FLOAT
          }
        }
      }
    }
    ret {
      key: "batchdatasetv2"
      value: "BatchDatasetV2:handle:0"
    }
  }
  function {
    signature {
      name: "tf_data_structured_function_wrapper_Qky8TA5ITQU"
      input_arg {
        name: "arg0"
        type: DT_STRING
      }
      output_arg {
        name: "tfrecorddataset"
        type: DT_VARIANT
      }
      description: "Wrapper for passing nested structures to and from tf.data functions."
      is_stateful: true
    }
    node_def {
      name: "compression_type"
      op: "Const"
      attr {
        key: "dtype"
        value {
          type: DT_STRING
        }
      }
      attr {
        key: "value"
        value {
          tensor {
            dtype: DT_STRING
            tensor_shape {
            }
            string_val: ""
          }
        }
      }
    }
    node_def {
      name: "buffer_size"
      op: "Const"
      attr {
        key: "dtype"
        value {
          type: DT_INT64
        }
      }
      attr {
        key: "value"
        value {
          tensor {
            dtype: DT_INT64
            tensor_shape {
            }
            int64_val: 262144
          }
        }
      }
    }
    node_def {
      name: "TFRecordDataset"
      op: "TFRecordDataset"
      input: "arg0"
      input: "compression_type:output:0"
      input: "buffer_size:output:0"
    }
    ret {
      key: "tfrecorddataset"
      value: "TFRecordDataset:handle:0"
    }
  }
  function {
    signature {
      name: "tf_data_structured_function_wrapper_zAYaQ0rAM1s"
      input_arg {
        name: "arg0"
        type: DT_STRING
      }
      output_arg {
        name: "reshape"
        type: DT_FLOAT
      }
      output_arg {
        name: "reshape_1"
        type: DT_FLOAT
      }
      description: "Wrapper for passing nested structures to and from tf.data functions."
    }
    node_def {
      name: "ParseSingleExample/Const"
      op: "Const"
      attr {
        key: "dtype"
        value {
          type: DT_STRING
        }
      }
      attr {
        key: "value"
        value {
          tensor {
            dtype: DT_STRING
            tensor_shape {
              dim {
              }
            }
          }
        }
      }
    }
    node_def {
      name: "ParseSingleExample/Const_1"
      op: "Const"
      attr {
        key: "dtype"
        value {
          type: DT_STRING
        }
      }
      attr {
        key: "value"
        value {
          tensor {
            dtype: DT_STRING
            tensor_shape {
              dim {
              }
            }
          }
        }
      }
    }
    node_def {
      name: "ParseSingleExample/ParseSingleExample"
      op: "ParseSingleExample"
      input: "arg0"
      input: "ParseSingleExample/Const:output:0"
      input: "ParseSingleExample/Const_1:output:0"
      attr {
        key: "Tdense"
        value {
          list {
            type: DT_STRING
            type: DT_STRING
          }
        }
      }
      attr {
        key: "dense_keys"
        value {
          list {
            s: "CompI"
            s: "low_CompI"
          }
        }
      }
      attr {
        key: "dense_shapes"
        value {
          list {
            shape {
            }
            shape {
            }
          }
        }
      }
      attr {
        key: "num_sparse"
        value {
          i: 0
        }
      }
      attr {
        key: "sparse_keys"
        value {
          list {
          }
        }
      }
      attr {
        key: "sparse_types"
        value {
          list {
          }
        }
      }
    }
    node_def {
      name: "DecodeRaw"
      op: "DecodeRaw"
      input: "ParseSingleExample/ParseSingleExample:dense_values:1"
      attr {
        key: "little_endian"
        value {
          b: true
        }
      }
      attr {
        key: "out_type"
        value {
          type: DT_FLOAT
        }
      }
    }
    node_def {
      name: "Reshape/shape"
      op: "Const"
      attr {
        key: "dtype"
        value {
          type: DT_INT32
        }
      }
      attr {
        key: "value"
        value {
          tensor {
            dtype: DT_INT32
            tensor_shape {
              dim {
                size: 3
              }
            }
            tensor_content: "P\000\000\000P\000\000\000\003\000\000\000"
          }
        }
      }
    }
    node_def {
      name: "Reshape"
      op: "Reshape"
      input: "DecodeRaw:output:0"
      input: "Reshape/shape:output:0"
      attr {
        key: "T"
        value {
          type: DT_FLOAT
        }
      }
      attr {
        key: "Tshape"
        value {
          type: DT_INT32
        }
      }
    }
    node_def {
      name: "DecodeRaw_1"
      op: "DecodeRaw"
      input: "ParseSingleExample/ParseSingleExample:dense_values:0"
      attr {
        key: "little_endian"
        value {
          b: true
        }
      }
      attr {
        key: "out_type"
        value {
          type: DT_FLOAT
        }
      }
    }
    node_def {
      name: "Reshape_1/shape"
      op: "Const"
      attr {
        key: "dtype"
        value {
          type: DT_INT32
        }
      }
      attr {
        key: "value"
        value {
          tensor {
            dtype: DT_INT32
            tensor_shape {
              dim {
                size: 3
              }
            }
            tensor_content: "P\000\000\000P\000\000\000\003\000\000\000"
          }
        }
      }
    }
    node_def {
      name: "Reshape_1"
      op: "Reshape"
      input: "DecodeRaw_1:output:0"
      input: "Reshape_1/shape:output:0"
      attr {
        key: "T"
        value {
          type: DT_FLOAT
        }
      }
      attr {
        key: "Tshape"
        value {
          type: DT_INT32
        }
      }
    }
    ret {
      key: "reshape"
      value: "Reshape:output:0"
    }
    ret {
      key: "reshape_1"
      value: "Reshape_1:output:0"
    }
  }
  function {
    signature {
      name: "_make_dataset_SJNvMl0qLUY"
      output_arg {
        name: "batchdatasetv2"
        type: DT_VARIANT
      }
      is_stateful: true
    }
    node_def {
      name: "TensorSliceDataset/Const_4"
      op: "Const"
      attr {
        key: "dtype"
        value {
          type: DT_STRING
        }
      }
      attr {
        key: "value"
        value {
          tensor {
            dtype: DT_STRING
            tensor_shape {
            }
            string_val: "Ph_3ch_accel_5_4_zero_padding.tfrecord"
          }
        }
      }
    }
    node_def {
      name: "TensorSliceDataset/flat_filenames/shape"
      op: "Const"
      attr {
        key: "dtype"
        value {
          type: DT_INT32
        }
      }
      attr {
        key: "value"
        value {
          tensor {
            dtype: DT_INT32
            tensor_shape {
              dim {
                size: 1
              }
            }
            int_val: -1
          }
        }
      }
    }
    node_def {
      name: "TensorSliceDataset/flat_filenames"
      op: "Reshape"
      input: "TensorSliceDataset/Const_4:output:0"
      input: "TensorSliceDataset/flat_filenames/shape:output:0"
      attr {
        key: "T"
        value {
          type: DT_STRING
        }
      }
      attr {
        key: "Tshape"
        value {
          type: DT_INT32
        }
      }
    }
    node_def {
      name: "TensorSliceDataset"
      op: "TensorSliceDataset"
      input: "TensorSliceDataset/flat_filenames:output:0"
      attr {
        key: "Toutput_types"
        value {
          list {
            type: DT_STRING
          }
        }
      }
      attr {
        key: "output_shapes"
        value {
          list {
            shape {
            }
          }
        }
      }
    }
    node_def {
      name: "FlatMapDataset"
      op: "FlatMapDataset"
      input: "TensorSliceDataset:handle:0"
      attr {
        key: "Targuments"
        value {
          list {
          }
        }
      }
      attr {
        key: "f"
        value {
          func {
            name: "tf_data_structured_function_wrapper_Qky8TA5ITQU"
          }
        }
      }
      attr {
        key: "output_shapes"
        value {
          list {
            shape {
            }
          }
        }
      }
      attr {
        key: "output_types"
        value {
          list {
            type: DT_STRING
          }
        }
      }
    }
    node_def {
      name: "MapDataset"
      op: "MapDataset"
      input: "FlatMapDataset:handle:0"
      attr {
        key: "Targuments"
        value {
          list {
          }
        }
      }
      attr {
        key: "f"
        value {
          func {
            name: "tf_data_structured_function_wrapper_zAYaQ0rAM1s"
          }
        }
      }
      attr {
        key: "output_shapes"
        value {
          list {
            shape {
              dim {
                size: 80
              }
              dim {
                size: 80
              }
              dim {
                size: 3
              }
            }
            shape {
              dim {
                size: 80
              }
              dim {
                size: 80
              }
              dim {
                size: 3
              }
            }
          }
        }
      }
      attr {
        key: "output_types"
        value {
          list {
            type: DT_FLOAT
            type: DT_FLOAT
          }
        }
      }
      attr {
        key: "use_inter_op_parallelism"
        value {
          b: true
        }
      }
    }
    node_def {
      name: "RepeatDataset/count"
      op: "Const"
      attr {
        key: "dtype"
        value {
          type: DT_INT64
        }
      }
      attr {
        key: "value"
        value {
          tensor {
            dtype: DT_INT64
            tensor_shape {
            }
            int64_val: -1
          }
        }
      }
    }
    node_def {
      name: "RepeatDataset"
      op: "RepeatDataset"
      input: "MapDataset:handle:0"
      input: "RepeatDataset/count:output:0"
      attr {
        key: "output_shapes"
        value {
          list {
            shape {
              dim {
                size: 80
              }
              dim {
                size: 80
              }
              dim {
                size: 3
              }
            }
            shape {
              dim {
                size: 80
              }
              dim {
                size: 80
              }
              dim {
                size: 3
              }
            }
          }
        }
      }
      attr {
        key: "output_types"
        value {
          list {
            type: DT_FLOAT
            type: DT_FLOAT
          }
        }
      }
    }
    node_def {
      name: "ShuffleDataset/buffer_size"
      op: "Const"
      attr {
        key: "dtype"
        value {
          type: DT_INT64
        }
      }
      attr {
        key: "value"
        value {
          tensor {
            dtype: DT_INT64
            tensor_shape {
            }
            int64_val: 20000
          }
        }
      }
    }
    node_def {
      name: "ShuffleDataset/seed"
      op: "Const"
      attr {
        key: "dtype"
        value {
          type: DT_INT64
        }
      }
      attr {
        key: "value"
        value {
          tensor {
            dtype: DT_INT64
            tensor_shape {
            }
            int64_val: 0
          }
        }
      }
    }
    node_def {
      name: "ShuffleDataset/seed2"
      op: "Const"
      attr {
        key: "dtype"
        value {
          type: DT_INT64
        }
      }
      attr {
        key: "value"
        value {
          tensor {
            dtype: DT_INT64
            tensor_shape {
            }
            int64_val: 0
          }
        }
      }
    }
    node_def {
      name: "ShuffleDataset"
      op: "ShuffleDataset"
      input: "RepeatDataset:handle:0"
      input: "ShuffleDataset/buffer_size:output:0"
      input: "ShuffleDataset/seed:output:0"
      input: "ShuffleDataset/seed2:output:0"
      attr {
        key: "output_shapes"
        value {
          list {
            shape {
              dim {
                size: 80
              }
              dim {
                size: 80
              }
              dim {
                size: 3
              }
            }
            shape {
              dim {
                size: 80
              }
              dim {
                size: 80
              }
              dim {
                size: 3
              }
            }
          }
        }
      }
      attr {
        key: "output_types"
        value {
          list {
            type: DT_FLOAT
            type: DT_FLOAT
          }
        }
      }
      attr {
        key: "reshuffle_each_iteration"
        value {
          b: true
        }
      }
    }
    node_def {
      name: "BatchDatasetV2/batch_size"
      op: "Const"
      attr {
        key: "dtype"
        value {
          type: DT_INT64
        }
      }
      attr {
        key: "value"
        value {
          tensor {
            dtype: DT_INT64
            tensor_shape {
            }
            int64_val: 16
          }
        }
      }
    }
    node_def {
      name: "BatchDatasetV2/drop_remainder"
      op: "Const"
      attr {
        key: "dtype"
        value {
          type: DT_BOOL
        }
      }
      attr {
        key: "value"
        value {
          tensor {
            dtype: DT_BOOL
            tensor_shape {
            }
            bool_val: false
          }
        }
      }
    }
    node_def {
      name: "BatchDatasetV2"
      op: "BatchDatasetV2"
      input: "ShuffleDataset:handle:0"
      input: "BatchDatasetV2/batch_size:output:0"
      input: "BatchDatasetV2/drop_remainder:output:0"
      attr {
        key: "output_shapes"
        value {
          list {
            shape {
              dim {
                size: -1
              }
              dim {
                size: 80
              }
              dim {
                size: 80
              }
              dim {
                size: 3
              }
            }
            shape {
              dim {
                size: -1
              }
              dim {
                size: 80
              }
              dim {
                size: 80
              }
              dim {
                size: 3
              }
            }
          }
        }
      }
      attr {
        key: "output_types"
        value {
          list {
            type: DT_FLOAT
            type: DT_FLOAT
          }
        }
      }
    }
    ret {
      key: "batchdatasetv2"
      value: "BatchDatasetV2:handle:0"
    }
  }
}
versions {
  producer: 27
  min_consumer: 12
}
